weights/final_kg_weights.pth (torch, 262669 bytes, 11 tensors)

conv1.weight f4 [6, 50, 50]
00000000: 66b1 6cbe 5cc6 c3bd 8ef1 1dbd 0ce1 ce3d
00000010: ef01 b6bd 197d f9bd 9d97 64be fe2e 75be
00000020: 4d85 afbd b472 403d 9366 403e 7f1c fa3c
00000030: b0f7 07be cfe2 ae3d ad27 7b3c 12c8 0f3e
00000040: c2b9 f6bb 9a9e 1bbe 5b18 49bc cdd3 85bd
00000050: daed bdbd 7ace 673e 6eec 0c3e c023 4e3d
00000060: e6c8 1bbe 87d4 7c3d 646d edbd 2fe4 8b3d
00000070: 35dc 99bd 62ba 733b 12f6 373c 77c9 dbbd
00000080: 2552 4e3e 501e d33c 35b3 3d3e 42ba 513e
00000090: 7b0f 1b3e db79 6dbe ad27 31be afa5 303d
000000a0: 68d7 72be c8ac 1bbe 2a93 123e 0d49 1e3e
000000b0: c5d2 523e 5baa 823d 8302 783e 194b b4bb
000000c0: d32d 25be 0619 c53d c608 e8bd 882f 453d
000000d0: f3df 3ebe ff22 6e3d c9e2 483e e568 053d
000000e0: 9389 b43d 8e1d df3c d9b9 1ebd 8a3b cabb
000000f0: 2a8f e63d 52fd 3e3e aece 5abe 86e6 fcbd
00000100: a7c5 17be c2cc 043e 9842 873c 0cd5 21bd
00000110: cca0 083e ddd7 723d b25b 093e 3581 813c
00000120: 90ff 543e 6329 4cbe ceb0 473e bd5f 153e
00000130: 7c7d b93d 4226 6d3e e2c6 4bbe 1bfc aa3d
00000140: 2b0c ca3d a30f 8abd 23ce 5b3e 33a9 723e
00000150: 0679 463d 3b57 51be 171b 1dbd 2197 e13d
00000160: 8d47 9ebd c2d6 633b 3c22 713d 2e71 583e
00000170: 12ef 3cbe c932 4abe 5e34 a43c 86e0 ebbd
00000180: 9117 193e 05c6 a83d 340d e73c fbfa 7d3d
00000190: e1a9 60be 4608 f73d 9f6a 0d3e cea9 fd3d
000001a0: c2eb 50be 6d37 11be 49f9 35be 759a 0fbd
000001b0: 5fde 363d fe34 e2bd 34ef 07be 16aa 34be
000001c0: 9f5f e4bc fb18 26be 9946 103e ca7a 2cbc
000001d0: e8fa 2bbd 7338 5f3e 14b3 c1bb 9953 75be
000001e0: b8db 493d 0aad 583c 071a 3b3d 0325 76bc
000001f0: bbad 8d3d c488 11bd 40fc ba3d 4672 b73d
00000200: 9dda 123d bb04 f8ba b27b af3c b538 07be
00000210: d5cf 7c3e 013e 323e 2809 54be c03e 193d
00000220: d63a 6a3e 31d0 2dbe 2b01 79bd 3550 1ebe
00000230: e16e 72be 2937 f23d a605 27be db5d 89bd
00000240: 471c 273d d367 693e abc7 f13d 160c 78be
00000250: 8d22 3abe d7f4 763b d1ca 9cbd 3581 7a3d
00000260: 06da c0bc ebc2 3d3e 3f48 39be 0e16 dbbd
00000270: 3766 64be 1e08 493e 6504 1d3e c386 d6bc
00000280: 8d4d 903c 134f 50be e80f 4abe dd89 85bd
00000290: 3bce f63d e8db 9dbd a962 4ebe aac4 103e
000002a0: 43b8 2cbe f48c ccbd 905d 10be f6fb 81bc
000002b0: 8d73 5f3e 9c39 2dbe f19e 6a3e 3007 be3c
000002c0: 6dde ac3d b3d3 64bd 9bb7 a8bb 852d 54be
000002d0: 33c1 4bbe 41ab 4bbe fee5 a83d d441 fabd
000002e0: d047 96bc 783f 373e e0f5 6f3e 8e9f 4d3e
000002f0: 41c9 62be 2c42 a3bb 8cda 243e 06e0 44be
00000300: 6d1c 62be 1b04 1fbe ace4 683d c86a b93d
00000310: 7856 f43c ec93 7dbd de7c 0e3e a41f c73d
00000320: b144 193e 50ee 5dbe 26ae 8abd 584b 593e
00000330: 3050 52be 356b 81bd 07ee 063d d364 1dbe
00000340: 9547 f6bd 0725 f6bd f04d 5b3d e511 18be
00000350: 7f9f 81bc 1e67 d8bc ea60 703e d34b a9bd
00000360: c50f 51bd aa56 c8bd 8eb1 243e f24a 113e
00000370: 98ed 74be edb5 653e a586 08be 4769 043b
00000380: bb55 31be ee43 c4bd c4c8 a7bd 7402 88bd
00000390: 46e4 28be cc44 f6bd ffa7 26be 25c3 4fbe
000003a0: 1998 5abe 58a1 e33d 5083 c03d 52ac 74be
000003b0: 8855 2a3d df5a e7bd 5ca0 8dbc 71b8 6f3e
000003c0: 5782 e83d 678c 5cbe 1529 52bc 50e5 243d
000003d0: 2f73 57be 8683 31bd aed2 34be 43bc db3d
000003e0: 79fa 3a3e f052 353e 7ed5 7c3e f2bc 3f3e
000003f0: fb61 463e 31b2 03be 5c97 8bbb edbb 343e
-0.23114547 -0.095593184 -0.038560443 0.10101518 -0.088870876 -0.121820636 -0.22323461 -0.23943707
-0.08570347 0.04698439 0.18789129 0.030531166 -0.13278079 0.08539354 0.015329284 0.14041165
-0.0075294683 -0.1519722 -0.012273873 -0.065345384 -0.09273882 0.22637358 0.13762066 0.050327063
-0.15213355 0.06172612 -0.1159313 0.06830632 -0.07512704 0.003718995 0.011228101 -0.10731786
0.20148523 0.02577129 0.18525393 0.20481208 0.15142624 -0.23191015 -0.17300291 0.04312676
-0.23714983 -0.1520263 0.14313951 0.15457554 0.20588215 0.06380149 0.24219708 -0.0055021164
-0.16130762 0.096239135 -0.113297984 0.048141032 -0.18640117 0.058138844 0.19617762 0.03257074
0.08815303 0.027235772 -0.038751457 -0.0061716484 0.11257775 0.18651322 -0.21367905 -0.12348656
-0.14821492 0.12968734 0.016511247 -0.039509818 0.13342589 0.059287895 0.13413885 0.015808681
0.20800614 -0.19937663 0.1950104 0.14587303 0.09057137 0.23159125 -0.19900087 0.083488666
0.09865602 -0.06741264 0.21465354 0.23697357 0.04845526 -0.20443432 -0.038355913 0.11015154
-0.07728491 0.0034765457 0.05887054 0.21136925 -0.18450573 -0.19745935 0.020044502 -0.11517434
0.14950396 0.08240894 0.028204538 0.06200693 -0.21939804 0.12062125 0.13810204 0.12385903
-0.20402434 -0.141813 -0.17770876 -0.03505941 0.044645663 -0.11045264 -0.13274843 -0.17643008
-0.027877627 -0.16220467 0.14089431 -0.010527322 -0.04198733 0.21798877 -0.0059112404 -0.23957671
0.049281806 0.0132248495 0.04567912 -0.015023473 0.06917902 -0.03553082 0.09130144 0.08957343
0.035853017 -0.0018922308 0.021421287 -0.13205226 0.24688657 0.17406465 -0.20706618 0.03741336
0.22874007 -0.1697395 -0.06079213 -0.15460284 -0.2367511 0.11826927 -0.16310748 -0.06707355
0.04079845 0.22793512 0.11805662 -0.2422336 -0.18177243 0.0037682557 -0.07655872 0.061158378
-0.023541462 0.18531387 -0.18093966 -0.10697566 -0.22304617 0.19632003 0.15333708 -0.026187306
0.017615104 -0.20342664 -0.1973263 -0.06520436 0.12051054 -0.077079594 -0.20154823 0.14137521
-0.16867165 -0.09987822 -0.14098191 -0.015867215 0.21821423 -0.16916507 0.22912194 0.023196787
0.08440862 -0.055865955 -0.0051488406 -0.2072049 -0.19897918 -0.19889547 0.082469925 -0.12219587
-0.01834479 0.17895305 0.23433638 0.20080397 -0.22147085 -0.0049822535 0.16098994 -0.19226083
-0.22081156 -0.1552891 0.056858703 0.0905357 0.029826388 -0.061908647 0.1391482 0.09722832
0.1496761 -0.2167294 -0.067714974 0.21220148 -0.20538402 -0.06319276 0.032941844 -0.15370493
-0.12025372 -0.12018781 0.053541124 -0.14850576 -0.015823124 -0.026416358 0.2347447 -0.082664154
-0.05104043 -0.09782155 0.16083357 0.14188746 -0.2391876 0.2243268 -0.13332613 0.0020204352
-0.1731786 -0.09583269 -0.0819259 -0.06641093 -0.1649333 -0.12024841 -0.16275023 -0.20289285
-0.21347083 0.11114758 0.09400046 -0.2389386 0.041585475 -0.11296629 -0.01728838 0.23410203
0.11352985 -0.21537934 -0.0128271775 0.040257752 -0.21040033 -0.04333832 -0.17658493 0.107292674
0.1825961 0.1770742 0.24690816 0.1872442 0.19373314 -0.12860943 -0.004259987 0.17649813

conv1.root f4 [50, 50]
00000000: de5c 5abe f1b4 2abe 458d 12bd f3ee 41be
00000010: af0d 533e ed29 043e b379 183e 9cd6 20bc
00000020: a5b2 533e 2387 30be a764 8cbd 2c5f 4cbe
00000030: 5f18 a5bd 19f0 d6bd 42e7 06be 0251 993d
00000040: 8dba 0e3d 3598 47be e7a7 8b3c 91ec ae3d
00000050: fd56 cfbd 227c ebbd 9ed0 753d 97ae 01be
00000060: 0445 d33c ce30 19be f4da 67bd dc60 7e3d
00000070: b1fb 003e e398 173e 373f 1c3e 879c 2b3d
00000080: 6733 483e 03ba 2abc 0313 7e3d fe52 273d
00000090: 8512 08be caad 1c3e 8f3b bbbd f8af 103e
000000a0: 3319 b2bd fd79 cabd 61bc 07bc 4825 453e
000000b0: 642f 07be ad3b e53d d7b2 27be 05b0 4f3e
000000c0: 5bbb c3bc b394 02bd 779a fb3d 1ee4 363d
000000d0: 7006 45bd 0cdb db3d c403 32bd 2ccd 1cbc
000000e0: c26f 46be eff0 323e 5731 433e 0513 bc3c
000000f0: acf1 563e a5e8 41be fb89 1a3e a638 3bbe
00000100: c5a1 373e e418 b8bc 4872 133d ffde e13d
00000110: 3809 3b3e 8408 3fbd 1136 ec3d 41e9 fa3d
00000120: 07b0 56be 0bd1 763d c7e4 12be c0ac 223e
00000130: b949 703e 5c8c 483e f1df f93c 2b1d d6bd
00000140: 32b6 d2bd 75ca ee3c fa2d 493e 8193 8e3d
00000150: a661 a7bd abd3 463d f7d4 a5bd e27f ef3c
00000160: ef48 6a3d 1476 78be 8753 f53d 8d5f 9fbc
00000170: ee10 5f3e c6c6 783d b582 453e 9bd4 f73d
00000180: baef 703e b8fb babc ba01 19be c7d1 e7bd
00000190: 5c21 e0bb e8d3 1fbd b99b 233e 0451 edbd
000001a0: 35e0 c53c 2ec1 3f3e e5d9 f7bd f260 a8bd
000001b0: 430c e1bc 4247 41be a333 103e b35b 91bd
000001c0: e884 583e be3d 8bbd f2c7 dcbd f0c1 6d3e
000001d0: 2dfd 633e 21bf 333e 3862 35be 19e7 fb3d
000001e0: 6e62 1abe 2a61 3dbe f02d 1dbe 8d8d 3ebe
000001f0: 7320 7bbd 6b43 9e3d 3b15 6d3d 0300 3ebd
00000200: cd27 2cbc 5a02 2cbe b500 2b3e e296 f53c
00000210: cfd2 ba3c 8fed 1e3e 0c4b d33d 9896 713e
00000220: 15dd a8bd cd03 61bd 0139 b7bd bfcb 3f3e
00000230: 4f9f 243d f09c 3d3e 93b5 2cbd 20cb 4b3e
00000240: 74b4 303e a183 eb3d b84b a8bd 250a 01be
00000250: 6c25 1fbd 4f12 79be 4627 4c3d 45f2 84bd
00000260: 4fc2 22bd 86b2 2b3e adab 493c 0500 763d
00000270: 1737 c03d 04cc 6a3e 09f9 03be 19c6 68bd
00000280: 7be0 173e 3b01 5f3e 3754 153e e414 5e3e
00000290: 92f8 b33d 7d2f 59be 4316 953d 78a9 eebd
000002a0: e552 123e ab4f 4a3e bd1f 3ebe 4bf4 963c
000002b0: 3111 1dbe d256 69be 35b1 e43d 66c0 043e
000002c0: c1f5 67be f935 00be fe0c c5bd 72a9 0ebe
000002d0: 4f92 c33c 7e9f 33be 37f6 d7bc 4d55 363e
000002e0: 5557 3dbe ff50 493e 2321 d13d 00e2 13be
000002f0: ba56 17b9 e044 043e 0919 cb3d 6833 00bd
00000300: afb7 633e 35bf 6a3d 92eb 0fbe 07bc 73be
00000310: 7227 60bd f062 0cbb 835f 4abe 0e84 9f3c
00000320: d3a1 353e d6fe 12be 7a25 d83d d98d 63bd
00000330: d9bf 143b 1111 713e 145f 5b3e df5e 66bc
00000340: 14c4 99bb 6065 b6bd fbee 973c fab2 043e
00000350: 9bd8 76be 5323 453e 020d 0e3e 768a 64be
00000360: 7a54 1cbe 8a1b 4b3e 8b20 993d 1c11 303d
00000370: dcc8 043e f3ea 77bd c0f2 4bbe 046a 1abd
00000380: 4cfc c53d 06a0 b2bc 6c88 0ebd 5afd 373d
00000390: e802 173e 5456 173d 96fa 3d3e aa74 62be
000003a0: fa49 81bd 6c52 c3bd cbf8 11bd d369 cfbd
000003b0: 5944 913d 8823 04be 2423 5abe 5696 753d
000003c0: bd51 703e df42 52bd 1fd8 3c3e 093c 333e
000003d0: 0064 50bd 9b81 cabd 5148 61bd 28de 63be
000003e0: b12e 34be a938 4e3e 0d8d 00be 75a4 efbd
000003f0: 2077 4a3e 1e06 af3d 4ebf 6d3e d198 a2bc
-0.21324489 -0.16670586 -0.035779256 -0.18938808 0.20610689 0.12906618 0.14890175 -0.009816792
0.20673616 -0.1723905 -0.068551354 -0.1995818 -0.08061289 -0.10495014 -0.13174155 0.07486154
0.034845877 -0.19491656 0.017047836 0.08541215 -0.101240136 -0.11498286 0.060013406 -0.12664257
0.025789745 -0.14960024 -0.056605294 0.06210409 0.12596013 0.14804415 0.1525849 0.041897323
0.19550858 -0.010420325 0.06202985 0.040850632 -0.13288315 0.1530067 -0.09142219 0.14129627
-0.086962126 -0.09886549 -0.008284659 0.19252503 -0.13201672 0.11193023 -0.16376816 0.2028199
-0.023893049 -0.031880092 0.12285321 0.044651143 -0.048101842 0.10735139 -0.043460622 -0.009570401
-0.1937857 0.17474721 0.1906179 0.022958288 0.20990628 -0.18936403 0.15091698 -0.18283328
0.17932804 -0.022472806 0.03599766 0.11028861 0.18265235 -0.04663898 0.1153375 0.12251521
-0.20965587 0.060257953 -0.14345084 0.15886211 0.23465623 0.19584793 0.030502291 -0.10454782
-0.10288657 0.029149273 0.19646445 0.06961728 -0.08172922 0.048541706 -0.080972604 0.029235784
0.05719846 -0.24263793 0.11978822 -0.019454742 0.21783802 0.06073644 0.19288142 0.12101098
0.23528948 -0.022825107 -0.14942065 -0.11319309 -0.0068399142 -0.03902045 0.15977372 -0.11587718
0.024154762 0.18726036 -0.12102107 -0.08221616 -0.027471667 -0.18874839 0.14082198 -0.07097568
0.2114445 -0.06798886 -0.10780324 0.23218513 0.22264548 0.17553379 -0.17713249 0.12299938
-0.1507661 -0.18494096 -0.15349555 -0.18608685 -0.061310243 0.07727703 0.057881575 -0.04638673
-0.010507536 -0.16797772 0.16699488 0.029979173 0.0228056 0.15520309 0.103170484 0.23592603
-0.08245293 -0.054935265 -0.089464195 0.18730067 0.04019099 0.18516898 -0.04216535 0.19901705
0.17256337 0.114997156 -0.08217567 -0.12601526 -0.038854048 -0.2432339 0.04984214 -0.06491522
-0.03973609 0.1676732 0.012308997 0.060058612 0.093855076 0.22929388 -0.12887968 -0.056829546
0.14831726 0.21777813 0.14582907 0.21687657 0.087876454 -0.21209522 0.07279637 -0.11653417
0.14289434 0.19756953 -0.18566795 0.018427035 -0.15338589 -0.22787026 0.11166612 0.12964019
-0.22652341 -0.12520589 -0.09621619 -0.13931826 0.023873476 -0.1754131 -0.026362522 0.17805977
-0.18490346 0.19659804 0.102113985 -0.14441681 -0.0001443279 0.12916899 0.099168845 -0.031299025
0.22238038 0.057311255 -0.14054707 -0.23802195 -0.054725118 -0.0021421276 -0.19762997 0.019472148
0.17737512 -0.14355025 0.10554023 -0.0555552 0.0022697358 0.23541667 0.21422988 -0.014060705
-0.004692564 -0.089060545 0.018546572 0.12958899 -0.24106066 0.19251756 0.1387215 -0.22318444
-0.152666 0.19834724 0.0747691 0.042985067 0.12967247 -0.0605268 -0.1991682 -0.03769876
0.096672624 -0.02180482 -0.03479807 0.04491935 0.14747202 0.036947563 0.18552622 -0.22114816
-0.06312938 -0.09537205 -0.035637658 -0.10127606 0.070931144 -0.12904179 -0.21302468 0.059957825
0.2346868 -0.051333304 0.18441819 0.1750337 -0.050876617 -0.098880015 -0.055000607 -0.22252715
-0.17595936 0.20138802 -0.12553807 -0.117012896 0.19772005 0.08546089 0.23217508 -0.01984826

conv1.bias f4 [50]
00000000: cdfb 173c 5f42 e33b e5ba da3b 86e7 2d3b
00000010: 2ba4 cc3b 5c7f 8ebb eaa4 273c 7227 96ba
00000020: 52f2 0a3c 38b9 2d3c 8477 1d3c ddbe 433a
00000030: 5263 9e3b f69b 243c 5eb2 2abb bcfb d7bb
00000040: e3a3 0fbb d1ea 213c c63d 2c3c a1f0 8c3b
00000050: d8e6 7d3a eb81 173c 8593 4c3a afc6 253c
00000060: 4309 0a39 d1aa 073b f1c3 cfb8 d60d 243c
00000070: 7774 18bc 818b 2b3c b110 8439 db94 27bb
00000080: 5adf b63b 54f1 b3bb 57d8 eb3b 390d 10bc
00000090: 59fe 2a3c df7f 1abb 0882 1c3b 7677 19bc
000000a0: cdd6 d53b 196e f33b 2b65 163c 2849 233c
000000b0: 7430 193b f0c1 d3b9 ff6f e93b a8c8 24bc
000000c0: b6fd 103c 7cfa c93a
0.009276343 0.0069354023 0.0066751116 0.0026535704 0.0062451563 -0.0043486785 0.01023219 -0.0011455847
0.008480625 0.010603242 0.009611014 0.00074671005 0.0048336172 0.01004695 -0.0026046257 -0.0065912884
-0.0021917752 0.009882645 0.010512775 0.004301146 0.00096855825 0.009247283 0.00078039645 0.010118171
0.00013164156 0.002070118 -9.907026e-05 0.010013064 -0.009305111 0.010470272 0.00025189438 -0.0025570903
0.005580825 -0.005491415 0.0071974206 -0.008792215 0.010436618 -0.0023574752 0.0023881216 -0.009366861
0.0065258504 0.007428896 0.009179394 0.009966172 0.0023374828 -0.0004038955 0.0071239467 -0.010057606
0.008849552 0.0015409733

conv2.weight f4 [6, 50, 50]
00000000: ce99 aabd 69cc 3dbe 2346 aa3a 40ae 2d3e
00000010: cdae eabd ed6f 16be 63d4 ac3d 5ec8 1e3d
00000020: 3fde 953d 0aaf e03c 7fc2 443e b576 ebbd
00000030: 3cbb d93d 330e da3d 8a51 b6bd d92d 34be
00000040: 01fd 693e bf4e 31be 3ab8 d33d 3463 253e
00000050: da70 31be 9b0f 803e 7408 af3d f9e2 dbbd
00000060: 7f9e 8fbd 3f96 473d b2a5 10be a3e0 37be
00000070: 1d1c e6bc 36f1 9e3b 7aff eb3d 8a57 693e
00000080: 74f8 bb3d 0554 bf3b 8842 463e 1f47 873d
00000090: 4ada 373e 811a 6cbe bbe6 20be 40ec 8dba
000000a0: 76e0 5dbe 7871 2a3e a549 d0bc 2734 f53d
000000b0: d980 b1bd ef7e 09be 794c 2abe 68f4 7d3d
000000c0: 53ae 11be ce06 f6bd 87ec 5f3e bd73 1abe
000000d0: acdc a9bd 8794 6c3b a117 603e 47c7 3dbd
000000e0: e19e 72be 9202 63be 2901 b7bd 4942 83bd
000000f0: 5f39 58be 0701 aabb bc8a ba3d b170 c93d
00000100: 0327 6e3e 2dba f43d fbed 3f3d c2a3 233d
00000110: 945c e53d fb7f 34be f002 41bc d0aa 593e
00000120: 9e23 0cbe 385b 77be c5cf 9dbd a5e3 ca3d
00000130: dff5 e23a ee5c cf3d 5414 973d 589b 913a
00000140: 7176 54be 58ae b4bd 73c0 923d a219 1ebe
00000150: 84c0 4dbe 7b5b 50bd 8083 713e af63 55bd
00000160: 8659 5bbd dad8 103e 798d 27be 509b 6fbe
00000170: 0b96 4fbe 41e6 c23d 688a 63be cd81 74be
00000180: 7d82 5abe 1c5e 133e dd9c 633d 9ec7 073e
00000190: 9b95 bcbd 6c75 5e3e 1aa0 f0bd 751e 623e
000001a0: 9603 0e3e fa52 533e 40a9 48be 9714 babc
000001b0: 9667 8f3d 7e65 39be c9c0 693e 03a7 e63d
000001c0: 4d99 2dbe 5a12 4dbd 1a8a 6c3e 4e3c 13bd
000001d0: 4208 4f3e da8e febd 2146 723e 1b6b d13d
000001e0: f7b8 37be c823 c93b 3787 33be 594e b93c
000001f0: ecce 2c3e 2b0f d3bd 056e 9b3a a35e 183e
00000200: 2bd0 483e c9f8 2bbe e51b 6a3d 135e 81bd
00000210: 88a9 263e bf8d 02be 2658 acbc 5b1e 0fbe
00000220: f4b3 503e 64b4 a6bd ace1 633e 514d 433e
00000230: 75d4 f1bd 25b6 ecbd 92c0 52bd a958 a93d
00000240: 5cfc 413c c31c 7bbd 00bb 023e 99fd d93d
00000250: 372f 3b3c 93ee 50be dd12 493d a3a1 2dbe
00000260: 514c 863d 6c06 32be 8f68 55be 47f8 213e
00000270: c6cb fdbd 093e 34be 640e e1bd 3902 43be
00000280: 8cc4 d939 a0b0 263e ef1b 003d 213c 3bbe
00000290: ef82 1dbe 8b55 563e db9a 01be 762a 813e
000002a0: 0437 573e c73d 38bd e4a6 6a3e 210f 36bd
000002b0: c3f5 093e 6415 00bd a693 0c3e ede9 71be
000002c0: f52f 3cbe b461 803d 2215 013e 9af4 703e
000002d0: ac5e cb3d 0c66 b7bc 405d 9ebc 9d18 c5bb
000002e0: 468d 4c3d f590 0ebe f345 803d 65dd 143e
000002f0: a9e6 423e a6ce 143d 859f 27be e7e3 c1bd
00000300: b34c edbd 2fc3 27bd f33a 0c3e d74b b53d
00000310: 3382 ac3a e195 933d 89b2 7abd f153 713e
00000320: cba8 0fbd d40a 233e 991d 653e 7867 ad3d
00000330: deeb 6ebe d7c5 1d3e 0eed 50be 0186 bc3d
00000340: af58 1f3e 496c a83b 29fc 3c3e 3697 213d
00000350: ecc3 debd c99c 513d 2111 4ebd 3c2e 6e3e
00000360: 89a2 803d cb43 97bc da45 65be 65a4 9cbd
00000370: 479b 893c 9f09 55be 7212 153e 276b 1abd
00000380: 4d9f 013e 5858 2fbd b217 8fbd 8d63 6d3e
00000390: b644 503e 8a87 71be 2aed d0bd 51b1 c9bd
000003a0: 21b9 39bd 3b1e 1fbe 9dc8 8bbd 4214 883d
000003b0: 60e8 a33d 9607 aabd 793c 9f3d c988 313d
000003c0: 02d5 94bd 6860 26bb 3d30 4d3e e14e 2dbe
000003d0: fbd7 3c3e d105 183d 9e3f efbd 73cf 1f3e
000003e0: db0c 063e 9050 503e 902d 3cbd 5b00 183e
000003f0: 66d4 70be 5444 d7bd 571c 79bc 6c1a 47be
-0.08330117 -0.18535008 0.0012990873 0.16961002 -0.11459122 -0.14691134 0.08438947 0.038765304
0.07317781 0.027427215 0.1921482 -0.11497251 0.10631415 0.106472395 -0.08902271 -0.17595614
0.2285042 -0.17315196 0.10337873 0.16151124 -0.17328206 0.25011906 0.08546534 -0.10736651
-0.070126526 0.04872727 -0.14125708 -0.17956786 -0.028089577 0.004850532 0.11523338 0.227873
0.09178248 0.0058388733 0.19361317 0.06605362 0.17954364 -0.23056985 -0.15713017 -0.0010827854
-0.21667656 0.16644847 -0.025425741 0.11972838 -0.08667154 -0.13427328 -0.16630735 0.062000662
-0.14226656 -0.12013017 0.21867572 -0.15083213 -0.08294043 0.0036099271 0.21884014 -0.046332624
-0.2369342 -0.22168949 -0.08935768 -0.06409127 -0.21115635 -0.0051881108 0.09108493 0.09835947
0.2325707 0.11949573 0.046857815 0.039951093 0.111992985 -0.17626946 -0.0117804855 0.21256566
-0.13685462 -0.24155891 -0.077056445 0.09906701 0.0017315707 0.10125147 0.07376924 0.0011108918
-0.20748307 -0.08822316 0.07165613 -0.15439466 -0.2009297 -0.050868493 0.2358532 -0.05209702
-0.053552173 0.14145222 -0.16362561 -0.23399091 -0.2027208 0.09516574 -0.22220767 -0.2387764
-0.2133884 0.14391369 0.05556952 0.13259742 -0.092082225 0.2172448 -0.11749287 0.22081931
0.13868555 0.20637122 -0.19595814 -0.022714896 0.07002179 -0.18105122 0.22827448 0.11262324
-0.16953011 -0.05006633 0.23099557 -0.035946183 0.20217994 -0.124295905 0.23659565 0.10225507
-0.17941652 0.0061382987 -0.17532049 0.022620367 0.1687581 -0.103056274 0.001185835 0.14879851
0.1961066 -0.16794123 0.05715551 -0.06316771 0.16275609 -0.12749384 -0.021038126 -0.13976423
0.20381147 -0.081398755 0.22254056 0.19072463 -0.11808101 -0.11558179 -0.05145318 0.08268864
0.011839952 -0.061306726 0.12766647 0.10644073 0.011424831 -0.20403509 0.049090255 -0.16956191
0.06557525 -0.17385262 -0.20840667 0.15817367 -0.12392382 -0.1760179 -0.10989073 -0.19043817
0.00041535904 0.16278315 0.03127664 -0.18284656 -0.15381978 0.2093107 -0.12656729 0.25227708
0.2101708 -0.04498079 0.22915226 -0.04444802 0.13472657 -0.0312704 0.13728198 -0.23624392
-0.18377669 0.062686354 0.12605718 0.23530808 0.099301666 -0.022387527 -0.019331574 -0.006014897
0.049939416 -0.13922484 0.06263342 0.1453758 0.19033302 0.036329888 -0.16369446 -0.09467297
-0.11586895 -0.040957626 0.13694362 0.08852356 0.0013161361 0.072063215 -0.06120542 0.23567177
-0.035073083 0.159221 0.22374572 0.08467001 -0.23332164 0.15407501 -0.20402929 0.09205247
0.15561174 0.0051398617 0.18455566 0.039450847 -0.10877213 0.051174913 -0.050309304 0.23259825
0.06281001 -0.018464943 -0.22389928 -0.07648543 0.016797675 -0.20804451 0.14557818 -0.037699845
0.12658425 -0.04280886 -0.069869414 0.23182507 0.20338711 -0.2358686 -0.102014855 -0.098482735
-0.04534257 -0.15538876 -0.06825373 0.06644489 0.080033064 -0.08302228 0.07775206 0.04334334
-0.072671905 -0.0025387052 0.20037933 -0.16924621 0.18441765 0.037114922 -0.11682056 0.1560648
0.13090841 0.20343232 -0.04594189 0.14843886 -0.23518524 -0.105110794 -0.015204511 -0.19443673

conv2.root f4 [50, 50]
00000000: dbc2 30bd ad10 33be 3e8e ffbd f129 50be
00000010: 1b17 f7bd 7279 4e3e 66ea 4b3e 1bab 763e
00000020: 64d1 dfbd c5b2 663e 88da cb3d e960 6a3e
00000030: b4ce df3d f97a adbd c0cd 3c3d 7cfa 0cbe
00000040: cb2a bbbd ee42 773e 5bab 2dbe 01b9 2bbd
00000050: 3b3c 27be c271 4c3e d4b7 153e de86 dfbd
00000060: a2c9 c03d b167 383e 3748 8f3d 17c8 79be
00000070: aabc d73b adc4 a13d eddb 723e 99e0 6dbd
00000080: bd2c 813d d671 88bd d646 ecbb 675a 9e3d
00000090: 0b2b c2bd 659f ca3d a29e 9f3c a465 c8bc
000000a0: 401b 643e 547a 40be 4ecc 26be 942f e03d
000000b0: 661d 493e 39f0 193e 2009 dabd 4bbd f13d
000000c0: 0e8d 263e 3cf0 823d f76b e53c cf19 ee3d
000000d0: fead 60be 0a02 373e e8b0 5c3e 7e36 96bd
000000e0: f05f ccbd dff7 54be d17f 373e 6d06 5d3e
000000f0: 2fbf 7f3e 80a1 8bbd a897 38be 34fc e9bd
00000100: 79e5 49be 1ff9 093e aaea 2dbd 4ec5 2abe
00000110: d408 24be a4ba ab3c ab0c 2ebe 63b9 1c3e
00000120: b962 6d3e b6d2 9ebc 9513 343e 293b 543e
00000130: ef55 5abe 41f3 4dbe 4177 d23c 66b4 753d
00000140: b16c 1a3e 3357 a9bd 4d6d 0bbe 552e 4bbe
00000150: 07dc 15bd 6ea6 583e 7e78 45be 9da0 5e3e
00000160: 3562 72be 3357 2f3e 9508 163e 4019 533e
00000170: 0646 a1bc b4cc 933d a9d3 2abe 69b4 4a3e
00000180: 9492 1a3e 6128 5c3e 6652 9cbc dbfd 2fbe
00000190: 60a9 8a3d 2812 00be 07fb bb3d 42eb 2c3e
000001a0: b55b 363e 106a 363d 398f 15be 42c4 0b3d
000001b0: d827 72be 0ea3 2ebe bb8c bc3d 26ad 173e
000001c0: f46f 73be d4c8 0cbe 5dee 05bc 2b1e 11be
000001d0: 8281 a93d 7af9 34be c244 69be deb5 5e3d
000001e0: b15a 013e f75e 17be 6913 4ebe 1985 3a3d
000001f0: b5c1 f93d 4103 b1bd 0036 68be 1b68 f53d
00000200: 6c56 783e 8521 6e3e 8dfb 6ebd 7db0 ee3d
00000210: e891 5d3e 90da fc3d 9d97 ae3d 89a1 37be
00000220: 33a8 193e 506b 84bd f7da 72be 1495 96bb
00000230: 1260 1c3e 3fb9 643e 61d3 cabd 2e12 34be
00000240: c934 953d ea51 0ebe dd77 d5bd fdec e63d
00000250: b138 88bb 4d82 1cbe 1cee fabd e72d 783e
00000260: 5813 2a3e 09d9 343e 53df d5bc 6bef 743e
00000270: ff84 26be 38e3 2fba 9aec 9e3d a82d 52be
00000280: 2dac 4d3d ef97 c33d 0b97 653d 62f6 143e
00000290: 15e0 4f3e 6daa 8cbd 0f1d 24be bb11 7d3e
000002a0: 063f 073e 1666 09bc 9b02 54bc d627 a2bb
000002b0: 77e1 ad3d 0ec7 72bd 4bd4 893d 9349 603c
000002c0: 9d4e 173e 4ac6 00be 7b8d 633e c9df 60bc
000002d0: 57b6 29be 8950 6ebe 8a7a 47be 3f0c 69bd
000002e0: fa8c 47be 4706 473e ca86 aabc f822 01be
000002f0: 6b9f 6c3d 0a4c ecbd 400f 493e 3b30 1b3b
00000300: 2ef3 28bd 386c 7f3d 009e 30be 4c18 4b3e
00000310: 1a4a 423d 4319 0ebe a546 22bd fed0 29be
00000320: 0929 10be ba7d 31be 9e53 2dbe 7a56 b4bd
00000330: 0eca f13c 42dd d4bc 6bcc 5a3d 5b54 0dbe
00000340: 6c64 bdbd 1d0e c13d 6988 bbbd 194a 71be
00000350: ec3b 3a3e fcae a4bb a6a6 583e 56d1 3f3e
00000360: 3a88 c5bd 8072 ffba f3af 7a3e 894c a93c
00000370: 39aa 23be d0b4 abbd 427f 243c a8be 743e
00000380: c3e6 6bbe e252 893d b2e8 463e dcfe 73be
00000390: fbff febd b6a6 0fbe 3991 6dbe d101 ae3c
000003a0: 744b 4cbd 48f9 37be 6455 493e 075d 663d
000003b0: c8ec 26bd f433 923c 6f0f 063c a25e 5f3e
000003c0: a154 8b3b 5a0a 8bbc 02fe d5bd 2b5c 28bd
000003d0: d91d babc 6004 b43d e322 3f3e 00c8 37be
000003e0: 0fc8 38bc 3e52 753e b220 113d d4cc 1abd
000003f0: 78db 57be b964 84bd cd8d 24bd 1a28 c53d
-0.04315458 -0.1748683 -0.124783024 -0.203285 -0.12064954 0.20163515 0.19913635 0.24088709
-0.1092861 0.22529133 0.09953791 0.22888531 0.10928097 -0.08470721 0.046094656 -0.13767427
-0.091390215 0.24146625 -0.16959898 -0.04192448 -0.1633157 0.1996527 0.14620906 -0.10914396
0.094134584 0.18008305 0.06996196 -0.24392734 0.00658377 0.07898841 0.23716708 -0.05807552
0.06307361 -0.066623375 -0.0072105927 0.07732087 -0.09480866 0.09893683 0.019484822 -0.024462529
0.2227602 -0.18796664 -0.16288874 0.10946575 0.19640121 0.15033044 -0.10646272 0.11803683
0.16264746 0.06393477 0.028005583 0.11626016 -0.21941373 0.17871872 0.2155186 -0.07334612
-0.09979236 -0.2079768 0.17919852 0.21584482 0.24975275 -0.06817913 -0.18026602 -0.11425057
-0.19716443 0.13473938 -0.04246012 -0.16676828 -0.16018993 0.02096302 -0.1699702 0.15305094
0.23182191 -0.019387584 0.17585595 0.20725693 -0.21321844 -0.20112325 0.02569163 0.059986494
0.15080525 -0.08268585 -0.13615914 -0.19841893 -0.036586788 0.21157238 -0.19284245 0.21740957
-0.23670276 0.17123108 0.14651711 0.20615101 -0.01968671 0.072167784 -0.16682304 0.19795384
0.15094978 0.21499778 -0.01908226 -0.17186682 0.06770587 -0.12506926 0.09178739 0.16886619
0.17808421 0.044534743 -0.14605416 0.034122713 -0.23648012 -0.17054388 0.0920653 0.14812145
-0.23773175 -0.13748485 -0.008174506 -0.14171664 0.08276655 -0.17673293 -0.22780135 0.05437266
0.12632252 -0.1478232 -0.20124592 0.045537088 0.1219515 -0.08643199 -0.2267685 0.11982747
0.24251717 0.23254974 -0.058345366 0.11654756 0.2163769 0.12346375 0.08525012 -0.17932715
0.15005569 -0.06465781 -0.23716341 -0.004595408 0.15271023 0.22336291 -0.099035986 -0.1758506
0.072854586 -0.13898435 -0.10423253 0.11275671 -0.004157149 -0.15284081 -0.12252447 0.2423626
0.16608942 0.17660917 -0.026107466 0.23919456 -0.16261671 -0.00067095784 0.07759972 -0.20525229
0.050213028 0.095504634 0.05605225 0.14547113 0.20300324 -0.06868444 -0.1602671 0.24713795
0.13207635 -0.008386156 -0.012940074 -0.0049485965 0.0849027 -0.059271865 0.06729945 0.013689416
0.14776082 -0.12575641 0.2222194 -0.01372523 -0.16573463 -0.23272909 -0.19480339 -0.056896444
-0.19487372 0.19435988 -0.020816226 -0.12610996 0.05776922 -0.11537941 0.19634724 0.002367987
-0.04124754 0.062359065 -0.17247772 0.19833487 0.04743395 -0.13876824 -0.039618153 -0.1658363
-0.14078154 -0.17333117 -0.16926429 -0.088055566 0.029515292 -0.02598441 0.053417604 -0.1380171
-0.092476696 0.0942652 -0.091568775 -0.23563422 0.18186921 -0.0050257426 0.21157321 0.18732199
-0.09645124 -0.001948908 0.24481182 0.020666378 -0.15982904 -0.083840966 0.010040106 0.23900855
-0.23037247 0.06705262 0.19424704 -0.2382769 -0.12451168 -0.14028439 -0.2319993 0.0212411
-0.049876645 -0.17966187 0.1966148 0.05624106 -0.040753156 0.017847039 0.008182391 0.21813443
0.004252032 -0.01697271 -0.10448839 -0.041103523 -0.02271931 0.08789897 0.18665652 -0.17947388
-0.011278166 0.23957154 0.03543157 -0.037792996 -0.21079814 -0.06464524 -0.040174294 0.096267894

conv2.bias f4 [50]
00000000: bc8d 943b c876 1e3b ecca 253c 2b99 bd3b
00000010: 6213 ed3b 2050 cfbb b158 83bb 7cb1 103c
00000020: fbc8 443a cf52 2e3c 1219 0d3c 30f3 b33b
00000030: 2559 c93a da1b 60bb 881e 113c a1c4 0abc
00000040: 6515 243c 4745 ff3b 0000 0000 a899 09bc
00000050: 786c 233c 0be0 1f3c 8f5e cb3b 0000 0000
00000060: 68de 853b a788 e5bb f414 843b 5868 a63b
00000070: d9f1 e73b dc9a cebb 20d6 203c 8272 df3b
00000080: d531 6cbb 8362 003c 3f35 223c bc98 243c
00000090: 73e0 f33a b005 eb3a 9124 59bb e392 80bb
000000a0: 4f39 65bb 36cf 1c3c da23 d83b 6394 1c3c
000000b0: 6a27 ec3b 34bb c43b 2e4d 1cbb 9df8 293c
000000c0: a87e 123b 4197 bebb
0.0045334976 0.0024179686 0.010119181 0.0057860813 0.0072349766 -0.0063266903 -0.0040083756 0.008831378
0.0007506755 0.01063986 0.008611934 0.0054916367 0.001536165 -0.0034196288 0.008857377 -0.008469732
0.0100148665 0.007790241 0.0 -0.008398451 0.009974591 0.009758006 0.0062063406 0.0
0.004085351 -0.0070048156 0.004030818 0.0050783567 0.007078391 -0.006305082 0.009816676 0.0068190703
-0.0036040444 0.007835987 0.00990039 0.01004618 0.001860632 0.0017930772 -0.0033133368 -0.0039237603
-0.0034976786 0.009570887 0.0065960707 0.0095568625 0.007206847 0.0060037617 -0.0023849714 0.010374215
0.0022353325 -0.0058163707

fc1.weight f4 [128, 100]
00000000: d33c 52bd 1754 a2bd 8130 b5bd cfbe 1f3c
00000010: ba92 7f3c a818 c13d f2a2 943c 7305 bcbd
00000020: 530c 7a3d fe04 7b3d 7f7b 15bd fa52 1d3d
00000030: e0d1 47bd 2051 ca3c 6349 2d3d 304d 6abd
00000040: 5f96 03bd cf2e e83c 4ab0 133d b960 c5bc
00000050: 4b9e af3d bec2 f8bc eeef 223d 555f 85bd
00000060: ee3b 6bbd 2e79 9f3b 7ecc 783d 9d8d 7d3d
00000070: e9e3 4f3d 435e 68bd b91e 65bd e050 b23d
00000080: 9942 c2bc e788 e9bc 274f 64bd e993 9f3d
00000090: a428 d23d a258 843d 4df5 3f3c 4c07 383d
000000a0: 31e5 063c e689 d23c 475f b8bd 3674 123d
000000b0: e7c4 06bb 56e5 27bd 47cc 45bd d6e3 71bc
000000c0: 48af 6fbd 9936 b73d 70e7 69bd 60e4 863c
000000d0: 8729 c73d 871d 19bd 93aa 813d 6622 be3d
000000e0: 1d2b a1bd 5b2f 94bd c66c 8c3d adc8 e73a
000000f0: 6a60 aa3b cbb7 e03c 3939 7a3d bd8c 76bd
00000100: 4a72 6ebd f395 4f3d 1c8d 963d 88ce 4e3d
00000110: 1abb 323d 93a0 54bd a53c 28bd c871 ea3c
00000120: 3393 e3b8 3344 81bd 0a60 53bd 52da 893d
00000130: a651 afba 529f 30bd 43a9 933d b3ff 283c
00000140: 5aff a43c a076 aebd 867e 38bc 7202 173d
00000150: 8b91 90b6 860d b0bd 4f20 123d 160c 7abd
00000160: 0a30 14bd ad1d 35bd 5292 b8bd dda2 23ba
00000170: 1e17 723d 740d c83d ae9d 3dbd c3d6 02bd
00000180: 7d42 68bd 0ce6 893d 49c7 79bc 255f 77bb
00000190: c748 313d e779 653c 3853 51bc be23 b7bd
000001a0: df9f c73c bb54 4bbd f00d 0cbd 508a b43d
000001b0: 75be 09bd 4b89 41bd 02c8 1a3d 6335 a23d
000001c0: 942f 80bc 0b9f 91bd 77df 64bd d5c7 84bc
000001d0: 4c0d 933d 9770 7ebb bbf0 b33d 8bbc c4b8
000001e0: 8d01 803c b584 a2bc 5002 5fbc aa1a 68bd
000001f0: 4bc6 893d 00db bfbd 43d5 093d 2db0 47bd
00000200: 0f0f d73c b650 ecbc 8caf 04bd ad1c 18bd
00000210: 65b3 99bd f09f bc3d 35c7 bd3d 8f01 653c
00000220: 6b76 94bc df1a 0a3c 13f0 6e3d bab7 bd3d
00000230: 6bcd 24bd 6662 863c 0fca 2a3d dd38 83bd
00000240: 8379 37bd 028c e53b 0042 adbd 352f ab3d
00000250: 2588 51bd 4875 1cbd 63c2 57bd 223b 6bbd
00000260: 920d bdbd 32ef b53d 7d40 98bd 3585 fa3c
00000270: 5c24 7abd db96 173d 272a b63c e4ac 903c
00000280: 1fe7 edbc 0366 01bd c8f5 2c3d 9a63 66bc
00000290: 8ff6 8bbd d436 f3bc 35b0 803d 16df 07bd
000002a0: 934e 48bd 7b84 46bd 0a50 af3c 4dfa a73d
000002b0: df79 ccbd 9ada 35bc 5372 473d 59aa b1bd
000002c0: 0f74 8abd 1678 3abd b33e d63a 3ac6 1d3d
000002d0: 0548 a8bd 6383 17bd d670 973d 29d8 cebd
000002e0: 802a ba3d d0cb bd3d e181 d33b 4172 a0bc
000002f0: 40e7 fe3c 6bcb 323d fdee 9d3d fb1d ac3d
00000300: 3026 96bd 50b0 653d 555f 333b c0ba 90bd
00000310: 84c6 803d 1dad a2bd f510 a6bd cc01 7cbd
00000320: c084 013d aaad c83d 9a49 88bc 6260 ba3b
00000330: bc0b db3d 9bbf a5bd 209c 4a3d ad58 783d
00000340: a104 cabc 1943 8c3d 7ae0 c13d 9dbc 67bd
00000350: 9db4 24bd 3b43 5bbd 2052 70bd 6632 ba3d
00000360: f2aa a3bb 38dc 1f3c 07f3 10bd f55e 993c
00000370: f811 b3bd a4f2 243d b9ea 963d 8db3 413d
00000380: fce6 eabc 77fb 01bc bbc9 b73d 062f 8a3c
00000390: 8e5b 78bd 4927 abbd 7709 4a3d 7909 903c
000003a0: 260c a63d c8d1 dcbc d67f 483d a468 2dbd
000003b0: aeae 99bd ba86 e4bc b3ec 43bd 7b32 503d
000003c0: e38d aebd d6fc 833c 73bb 8a3c 64c5 bf3d
000003d0: 105b 40bd 7a4a 0b3b 1c2e debc abce 25bd
000003e0: cc50 bf3d 0006 b5bd 20cd 29bd 8a92 7c3d
000003f0: e29d 96bd fb17 ecbb f6ba 933d 6eec bf3d
-0.051327538 -0.07926195 -0.08847142 0.009750082 0.015598947 0.09428531 0.018144105 -0.09180727
0.06104691 0.061284058 -0.03649473 0.03840921 -0.048784137 0.024696887 0.042306315 -0.057202518
-0.032125827 0.028342633 0.036056794 -0.024093973 0.08575114 -0.030366298 0.039779596 -0.06512324
-0.0574302 0.0048667407 0.060741894 0.06190263 0.05075446 -0.05673052 -0.055937503 0.08706832
-0.023713397 -0.028507663 -0.055739548 0.077918835 0.10261658 0.06462218 0.011716199 0.044928834
0.008233354 0.02570052 -0.09002548 0.03575536 -0.002056414 -0.040990196 -0.048290517 -0.014763793
-0.05851677 0.089459606 -0.05710548 0.01646632 0.097247176 -0.037381675 0.063313626 0.09283905
-0.07869551 -0.07235595 0.068566844 0.0017683707 0.0051994817 0.02743139 0.061089728 -0.060192812
-0.058214463 0.050680112 0.07351133 0.050489932 0.043635465 -0.051910948 -0.04107346 0.028618708
-0.000108516215 -0.06311836 -0.05160526 0.067310944 -0.0013375774 -0.04312069 0.072100185 0.01031487
0.020141292 -0.0851872 -0.011260634 0.036867566 -4.308478e-06 -0.085963294 0.035675343 -0.061046682
-0.036178626 -0.044217754 -0.090122834 -0.0006242225 0.059104078 0.09768191 -0.046292953 -0.031943094
-0.056704033 0.06733331 -0.015245267 -0.003774592 0.043282297 0.014006115 -0.012776189 -0.08942364
0.024368225 -0.049641352 -0.03419298 0.088154435 -0.0336289 -0.047250073 0.0377884 0.07920339
-0.015647687 -0.07110413 -0.055877175 -0.016208569 0.071802706 -0.0038824433 0.0878615 -9.381127e-05
0.01562574 -0.01983867 -0.013611391 -0.056666054 0.067272745 -0.09367943 0.033650648 -0.048752
0.026252298 -0.02884708 -0.032393977 -0.037136722 -0.0750492 0.09210193 0.09266511 0.013977422
-0.018122872 0.008429258 0.05833442 0.09263559 -0.040234964 0.016404342 0.041696604 -0.0640733
-0.044793617 0.0070052156 -0.08459854 0.083586134 -0.05115523 -0.038197786 -0.052675616 -0.05742944
-0.09231104 0.088835135 -0.07434175 0.030581096 -0.06106983 0.0370091 0.022236897 0.017660566
-0.029040871 -0.031591427 0.042226583 -0.014061833 -0.06834137 -0.02968923 0.06283609 -0.033171736
-0.04890306 -0.048466187 0.02140047 0.08202038 -0.099841826 -0.011099482 0.048693012 -0.08675069
-0.06760418 -0.04552468 0.001634559 0.03851912 -0.08216862 -0.036990535 0.073945686 -0.10099823
0.090901375 0.0926739 0.0064546918 -0.01958573 0.031116128 0.043651026 0.07711599 0.08404156
-0.073315024 0.056076348 0.0027370055 -0.0706687 0.06287864 -0.07943175 -0.08108703 -0.06152515
0.03162074 0.09798749 -0.016636658 0.0056877593 0.106955975 -0.080931865 0.0494653 0.060631443
-0.02466041 0.06848735 0.09466644 -0.05657636 -0.04021131 -0.053530913 -0.05867207 0.09091644
-0.0049947435 0.009757094 -0.03538802 0.018722037 -0.08743662 0.040270463 0.073689885 0.047290374
-0.028674595 -0.007933489 0.08974024 0.016868126 -0.06063419 -0.083571024 0.049325433 0.017582642
0.08107786 -0.0269555 0.04895004 -0.04233612 -0.07504021 -0.027896274 -0.047833156 0.050829392
-0.085231565 0.016111773 0.016935086 0.09363821 -0.046961844 0.0021254108 -0.027121596 -0.040480297
0.09341583 -0.08839035 -0.041455388 0.061663188 -0.073543325 -0.007205007 0.07213394 0.09371267

fc1.bias f4 [128]
00000000: a298 7fbc b490 adbd 3335 dd3d 0077 8abc
00000010: 678d a0bb ec57 73bd fc18 a23d b777 8ebc
00000020: 4be8 8bbc 80af c6bd 16f3 27bd b25a 0d3d
00000030: 4b68 7cbb c9e4 ec3c 88bf 72bd a8b3 9abd
00000040: 7104 98bd 24de ae3c 03df 8c3d 7cfd 2bbd
00000050: bd2d b8bd 0683 74bd 0582 62bc ef40 b9bd
00000060: e07e 80bc 2d63 8fbd d0e2 083d 66b4 cf3c
00000070: 9aaf c7bc 9b6a c0bc b80d 56bd 815b 76bc
00000080: cc3a a1bd 85ae 7b3c 8fe2 823d 80df d43b
00000090: 3874 823d 0a53 b23c 5ecd 603d 3426 b2bd
000000a0: dabc 153d 73e3 b1bc 6c77 8a3d ca54 debc
000000b0: 6e6f 5cbd ed97 4aba da9e 79bd a1f2 183d
000000c0: f2fd 9cba 5623 a53d 0fda 9ebd 1f87 f1bc
000000d0: 805b 2a3c 3360 46bc e6ae 07bd 9020 42bc
000000e0: 5337 aebd cf2c a0bc f943 c6bd cd1f 45bb
000000f0: 650d f93b d028 e4bc c79e 44bd 1f4a f5bc
00000100: e1f3 783d fd73 083d e3db bf3d 6137 acbd
00000110: c0a7 963d a1ce b33c 6181 76bd bdb7 04bc
00000120: d2c5 a8bd 00be 8b3d 5e13 a33a 6fd1 403d
00000130: 418e acbd 6a3e 7abd 64d9 813c 3dfe 1abd
00000140: 453e d93d aa73 323d 7134 383d f9e7 c5bd
00000150: 4744 aebd 42e5 5cbd f99f 083d c1ce a1bd
00000160: bebe 96bd 298b c33d 0f00 84bd 3a52 d4bc
00000170: 4943 c1bd a39a 2abd 3ba5 0d39 6828 a53d
00000180: ade7 99bd 2097 7c3c 2551 bfba bfd6 2b3b
00000190: d3c9 b6bc ef5c 08bd 03e1 b6bd c8b5 933d
000001a0: 097b b3bb ebd2 b63c 10a9 b6bd c9fd 8ebd
000001b0: 514c 27bd f751 cb3c 5ddd 613d 6673 68bd
000001c0: 2856 abbd ca08 a6bd 2a21 39bd 3257 a93d
000001d0: 5309 043d 6fee 8c3d 2083 aebc 45dc 84bd
000001e0: 2208 5cbd 5eb4 693d 3330 64bb 9adc 613d
000001f0: 4426 c2bd 4bdf a4bc 94e7 bb3d 6ad2 a3bd
-0.015600355 -0.084748656 0.108011626 -0.016902447 -0.004899669 -0.05941002 0.07914922 -0.017391069
-0.01707854 -0.09701443 -0.04100331 0.034510322 -0.0038514312 0.028917687 -0.05926469 -0.07553798
-0.07422722 0.02134616 0.068784736 -0.04198979 -0.08993099 -0.059695266 -0.013824944 -0.09045588
-0.015685499 -0.07001338 0.03341943 0.025354575 -0.024375726 -0.023488333 -0.052259177 -0.015036465
-0.07872543 0.015361433 0.06390869 0.00649637 0.06369823 0.021768112 0.054883353 -0.08698693
0.036557056 -0.021714902 0.06761059 -0.02714004 -0.053817205 -0.0007728327 -0.06094251 0.037340764
-0.0011977537 0.080633804 -0.07756435 -0.029483376 0.010397792 -0.012107897 -0.03312578 -0.011848584
-0.08506646 -0.019552616 -0.096809335 -0.003007877 0.0076004737 -0.027851492 -0.048002984 -0.02994257
0.060779456 0.03331374 0.09368112 -0.08409 0.073562145 0.021949114 -0.06018198 -0.008100447
-0.08240856 0.06823349 0.0012441685 0.04707473 -0.0842557 -0.06109468 0.01585073 -0.037840117
0.1060758 0.043567337 0.044971887 -0.09663386 -0.085091166 -0.053929575 0.033355687 -0.07900763
-0.073606 0.09548027 -0.06445324 -0.025918115 -0.09436662 -0.04165138 0.00013508361 0.080643475
-0.07514892 0.01541689 -0.0014596327 0.0026220528 -0.022313034 -0.033291753 -0.08929636 0.072124064
-0.0054773134 0.02231737 -0.08918965 -0.069819994 -0.040844265 0.024819357 0.05514275 -0.056750678
-0.083660424 -0.08107145 -0.045197643 0.08268584 0.032235455 0.06881415 -0.02130276 -0.064873256
-0.053718694 0.057056777 -0.0034818768 0.055142023 -0.09479955 -0.020126006 0.091750294 -0.07999118

fc2.weight f4 [128, 128]
00000000: 3657 633c 7178 1a3d 11a4 6ebd 16b8 73bd
00000010: 291e b0bd 9ce7 b6bc 230b 73bd fc4b 11bc
00000020: a87e a7bd cf85 b33c 3d2b 06bd ad85 b5bb
00000030: 0349 99bc 8ce6 803d 37f4 8b3d fedc 4e3d
00000040: 396d 903b cd62 27bd 38a5 b5bd 4515 943d
00000050: 0962 b23c 2852 d3bc e702 7e3c 367c ab3d
00000060: c5d9 5cbd 526e 3a3c 7051 973d c65b a5bd
00000070: e6e1 4fbd c0ef 19bd e908 8ebd bca3 8a3d
00000080: cdd0 40bd 0ba9 0dbd 26f9 0abd 2a59 c1bc
00000090: a3d8 d2bc 1a62 bcbd dfd1 c0bd 452c f23c
000000a0: 81dd f1bc 590f 813d 7e96 d5bc 2aa0 e4ba
000000b0: fcc0 b53c da01 073d 9ca1 b9bd 6a81 7fbd
000000c0: 9bfb 1fbc baf9 83bd 5423 38bd 3257 96bd
000000d0: f53b 943d 4fae ad3d 91e7 0c3d 5515 5f3d
000000e0: 24f0 8fbd ab72 a43c a1b3 15bc 5af3 163d
000000f0: 2deb d63b 7248 753d b538 6ebd b6f0 333d
00000100: a965 b53c a137 efbc 7e21 43bd 4b90 28bd
00000110: a232 5d3d 3db0 f03c c664 b83c fa00 4c3d
00000120: 872e 4fbd 1461 8d3d 1d1a f93c df8f 823c
00000130: 4477 383d 74fb c43c ed9b 19bc 6790 28bd
00000140: 071e 0f3d abbe 68bd 5a77 853a a8b8 b6bd
00000150: 9bc6 803d 7109 35bd a9b9 793d ae8e 2fbd
00000160: 2b98 823d 8199 5d3d eced 26bd c9df 9cbd
00000170: aaea 60bd 34ef 9fbd 7fc3 2a3d 0afa 703d
00000180: f935 0f3d e002 1d3d f46e 84bd 80fa 75bd
00000190: 3d7a 8b3d 7a12 ed3c dc57 83bd ead5 7a3d
000001a0: ffac 94bd 1764 a5bc 50ee e2ba 556c 653c
000001b0: 4065 673d fee0 943d 5e42 a53d 63fc 483d
000001c0: 3247 723d a73e 6bbd 55b5 87bd 747e fd3b
000001d0: f66b 7d3a 2cf7 44ba fc9f 673d 9abf 94bb
000001e0: 4ddd 993d 293c bbbd 9e5d 89bd 37ec 3abc
000001f0: c5d1 e73c 090f bd3c 4480 8d3d dae3 4ebd
00000200: 8881 05bd 476f a23d 5504 aebc c123 65bd
00000210: 4fd0 4e3d d73f 23bd 4ca2 31bd 4621 d4bc
00000220: e2ff 2bbd 1d7b d93c 4422 59bd d4fe 2fbd
00000230: 9463 803d 157e 463d 892b 5b3d 12f5 9f3d
00000240: 88e0 9c3d 116e b2bc f488 23bc 5a37 1cbb
00000250: 7a62 4bbd f2ef 6aba 2673 69bc 7a87 59bd
00000260: c07c 033c 3380 58bd 6a17 6d3d 0fa9 6f3d
00000270: 313e 71bd 5014 7b3c 5481 d33c aa1f 703d
00000280: f3c3 5dbd 02bf 48bc 0823 a23d efcf 4a3c
00000290: 2537 1cbd 20a3 c9bb d71f 62bd 7409 803d
000002a0: 5c89 b0bd 165d 173d c0da 6dbd beb8 733d
000002b0: 5d0d a13c 8749 493d e4df 223d 86c9 9c3d
000002c0: 217e e7bc 2fcd 9dbd 37b1 9e3d 2352 e93a
000002d0: e7f4 94bd cbe5 773d 289f 263d 55ab 9ebd
000002e0: e8c4 3e3d 938f babd d023 483d 25eb 423d
000002f0: 6a25 ba3b 56e6 10bd 9a7a 2f3d 0dae 61bd
00000300: 2ffd 9e3d bc6f 28bd 00c7 0dbd 72a8 cf3b
00000310: a103 603d ff2f 2bbd 1383 933c 4776 39bd
00000320: 0d07 663d a4a7 fa3b 4b14 833c c5a5 23bd
00000330: ca68 cdbc 34a8 a03c 887d 493d 9526 933d
00000340: 7743 a8bd 2d88 823c bd58 bebd 3426 8fbd
00000350: 222e edbc 1d82 333d 33ec a13d 617a 6d3c
00000360: 7d22 febc 25b9 97bd 24bf a4bd 1d54 66bd
00000370: 186b e63c ccaf 3bbd 2247 65bc 827e 24bc
00000380: 0921 763c 2e45 6e3a 1691 6a3c 2ade e3bc
00000390: 13fd d43c 0d0f 63bc 42be f13b 1831 8fbb
000003a0: 8d24 74bd b196 5e3d 0da1 9c3d d0cc 9d3d
000003b0: 7167 973d 7b4c 123c abea fdbc 26d9 39bd
000003c0: a49b 94bd 2245 7fbd 75c5 ec3c ec35 853d
000003d0: 6851 773c b61d acbb 3c6b 8e3d c500 92bd
000003e0: f4fb 2b3d dfca 333d ae2b 2e3c 5825 74bb
000003f0: 240a e8bc 0c8b c2bb 87f4 31bd 191b 4c3d
0.013875773 0.037712518 -0.058261935 -0.05950173 -0.085995026 -0.022327237 -0.059336793 -0.008868214
-0.08178455 0.02191439 -0.03275608 -0.005539617 -0.018711573 0.06293973 0.0683369 0.050503723
0.0044075516 -0.04086571 -0.088694036 0.07230619 0.021775262 -0.025796011 0.015503622 0.08373301
-0.05391862 0.0113788415 0.0738858 -0.08074145 -0.050752543 -0.03758216 -0.06935293 0.06769511
-0.047074128 -0.03458504 -0.033929013 -0.023602087 -0.025738066 -0.09198399 -0.0941503 0.029562125
-0.029524567 0.063017555 -0.026072737 -0.0017442752 0.022186749 0.03296075 -0.09064028 -0.06237928
-0.009764577 -0.06444116 -0.044955567 -0.0734085 0.072379984 0.08480512 0.034400526 0.054463703
-0.07028225 0.02007421 -0.009137065 0.036853172 0.006558797 0.059883542 -0.05815955 0.04393073
0.022143202 -0.02920133 -0.047639363 -0.041153233 0.054003365 0.029380912 0.02250899 0.04980562
-0.05058148 0.06903282 0.03040796 0.015937744 0.045035616 0.024045683 -0.0093755545 -0.041153338
0.034940746 -0.05682246 0.0010182664 -0.08921939 0.06287881 -0.044198457 0.060968075 -0.04286068
0.0637668 0.05410147 -0.040754244 -0.07659871 -0.054911293 -0.07809296 0.041690346 0.058832206
0.03496358 0.03833282 -0.06466475 -0.06005335 0.068104245 0.028939474 -0.06413242 0.06123916
-0.07259559 -0.020189328 -0.0017313454 0.014002879 0.056493044 0.07269476 0.08069299 0.04906882
0.05914993 -0.057432797 -0.06626383 0.0077360217 0.00096672715 -0.0007513638 0.056549057 -0.0045394422
0.07512913 -0.09142334 -0.06707309 -0.011408857 0.028298268 0.023078458 0.0690923 -0.050510265
-0.032594234 0.07931381 -0.0212423 -0.0559423 0.050491627 -0.039855804 -0.04336767 -0.025894772
-0.041992076 0.026547963 -0.053011194 -0.042967632 0.06268993 0.048460085 0.053508315 0.07810415
0.076600134 -0.021781 -0.009981383 -0.0023836703 -0.04965446 -0.0008962146 -0.014248645 -0.053107716
0.008025348 -0.052856635 0.057883658 0.058510836 -0.0588972 0.015324667 0.025818504 0.058623947
-0.05414195 -0.012252571 0.07916838 0.012378677 -0.038138527 -0.006153479 -0.055206146 0.06251803
-0.08619949 0.036954008 -0.058069944 0.059502356 0.019659692 0.049142387 0.0397643 0.07655625
-0.028258385 -0.07705151 0.07748645 0.0017800968 -0.07273274 0.060521882 0.040679127 -0.07747523
0.046574503 -0.09109416 0.04886228 0.047587533 0.0056807296 -0.035375915 0.04284153 -0.05509763
0.07763135 -0.041122183 -0.03461361 0.006337219 0.05469096 -0.04179382 0.018006837 -0.045278814
0.056159068 0.007649379 0.016000887 -0.039953012 -0.025074381 0.019611456 0.04919198 0.07185093
-0.08215993 0.015934074 -0.09294269 -0.069897085 -0.028952662 0.043825258 0.079063796 0.014494509
-0.031022305 -0.074083604 -0.0804427 -0.05623256 0.028127238 -0.04582195 -0.01399401 -0.010039927
0.015022525 0.0009089288 0.014316818 -0.027815897 0.025999581 -0.013858569 0.007377417 -0.004369866
-0.05960517 0.05434293 0.076479055 0.077050805 0.07392777 0.008929367 -0.030995687 -0.045373105
-0.072562486 -0.06232179 0.028902749 0.065044254 0.015095092 -0.0052525653 0.06954047 -0.07129053
0.041988328 0.043894645 0.010630531 -0.0037253704 -0.028325148 -0.005936986 -0.04344609 0.04983053

fc2.bias f4 [128]
00000000: 33c2 483d afa5 d4bb f54c a0bd da9b 73bc
00000010: 201a d8bc 69f6 c73b bd8d 77bd fbdf cf3c
00000020: 73b6 8dbd 54cd 523c b650 e53a 1742 8bbd
00000030: 0459 2ebd a51b e8bc 31b4 adbd 1ff2 b1bd
00000040: e642 aebd af1f 7bbd 9a34 cfbc a993 16bc
00000050: 2295 4c3d 64c4 9f3d 2a53 1a3d 84aa 7c3d
00000060: 70cf e9bc eb91 7abd 3360 03bd b1b9 a43d
00000070: afd0 eebb 3fe6 74bd 8609 a43d f084 83bd
00000080: 034f 943d 8d6b 9fbd d69c 083c 2fbf 913d
00000090: 8ece 803c 3535 b03c 26cb afbd 4610 7e3c
000000a0: 151a 73bd 9d2c 86bd 93b8 99bd ba16 a73d
000000b0: 9326 01bd 5b58 5f3d b545 063d c628 37bd
000000c0: 0ada 78bd 73af 4b3d 61e0 8f3d d193 953d
000000d0: a410 eb3b c8e2 833d 4382 fc3c 209f 42bd
000000e0: 5d95 af3d 0601 c1bc ef4b b1bc 08b5 bb3b
000000f0: 1b55 4cbb 6d11 b53c 7331 aabd 345e 023d
00000100: c612 873d 479a d9bb 2ef9 8f3c 4227 843b
00000110: f0d3 16bd 7643 1e3d 11a6 6abd 87dd b0bc
00000120: 814d 493d 68be 383d ab42 a0bd 701a abbd
00000130: 2782 823c c8c7 db3c 1b86 bc39 3ba3 9bbd
00000140: 05ed 88bd 8784 903d 21f1 873d 17d6 68bd
00000150: e6d5 e33b a610 86bd 728c 9dbd 4b14 b73b
00000160: 63a5 32bd ae2b 2a3d 437c 383c 7408 24bd
00000170: 5173 97bd b095 263d e2f3 c3bd e585 f4bc
00000180: 8167 87bd 2ae7 8ebd 8041 b93d 4635 b33d
00000190: 96cf 5e3d 36d8 653c e4fa 073d 39d6 ffbb
000001a0: 2a7c 35bd a3b9 16bc 1a53 8b3d e513 563d
000001b0: c9df 513c 292f bb3d fbf2 a3bc ebc3 503d
000001c0: 12a0 963c d2e5 b63c 2f25 db3c 93a3 c13c
000001d0: 7c46 1c3a 7c22 4f3d 45c2 14bc 52cf a7bd
000001e0: ef8d 9dbd 698b 423c 27ef 0abc 2f9e ccbc
000001f0: 275f 92bc 611d b43d a2a8 503d a5b7 803d
0.049013328 -0.0064894776 -0.078271784 -0.014868701 -0.026379645 0.0061023724 -0.060437907 0.025375357
-0.06919565 0.012866337 0.0017495367 -0.06799715 -0.04256536 -0.028333494 -0.084816344 -0.08688759
-0.085088536 -0.061309513 -0.025293637 -0.009190478 0.04994691 0.078011304 0.037676968 0.061686054
-0.028541297 -0.061174314 -0.032074165 0.0804323 -0.0072880606 -0.059789892 0.08009629 -0.0642184
0.07241633 -0.077841856 0.008338174 0.071165435 0.015723493 0.021509746 -0.08583669 0.01550681
-0.059351046 -0.06551478 -0.07505908 0.081586316 -0.031530928 0.05452762 0.03278132 -0.04471662
-0.060754813 0.04972787 0.07025219 0.07303584 0.0071736146 0.064397395 0.030823832 -0.047515035
0.08573411 -0.023560058 -0.021642653 0.0057283677 -0.0031178656 0.022103036 -0.08310213 0.03182812
0.065953776 -0.0066407057 0.017574873 0.004033 -0.036823213 0.038638555 -0.05728728 -0.021590007
0.04914618 0.04510346 -0.07825216 -0.08354652 0.015931202 0.026828662 0.0003595807 -0.07599493
-0.06685833 0.070565276 0.066377886 -0.056844797 0.006952989 -0.06546144 -0.076928034 0.005587136
-0.043614756 0.041545562 0.011260095 -0.040047124 -0.07395042 0.040670097 -0.09568001 -0.029849002
-0.06611539 -0.06977685 0.09045696 0.087503955 0.054397188 0.0140285995 0.033198252 -0.0078075198
-0.044307865 -0.009199533 0.0680296 0.052265067 0.012809702 0.091398545 -0.020013323 0.050968092
0.018386874 0.022326384 0.026751129 0.023637569 0.0005961431 0.050569996 -0.009079521 -0.0819384
-0.07693087 0.011874058 -0.00847987 -0.024977772 -0.017867638 0.08794666 0.05094207 0.062850274

output.weight f4 [1, 128]
00000000: 5740 3bbc 6a59 83bd f1c9 553d 13af 01ba
00000010: b416 0b3d 2045 a23d 39a0 b53d dc2a 4fbc
00000020: 62e2 e8bc 30b9 2abd d31a 6cbc 367b c03d
00000030: d75f 553d df50 3ebc bc5f 91bd 9e7d 803d
00000040: da3a afba 6807 5e3d 9e97 e4bc bccf c23c
00000050: 7e63 c93d d389 ba3d 3e47 ba3d 8e60 2cbd
00000060: 6c9f f13c f8e2 86bd 7e20 6f3d 6bde 65bd
00000070: 302e 69bd 0b7f 4a3d 7e86 87bd b2e0 843b
00000080: 90f9 d53c 6e65 61bd 097b 4a3d 3f69 563d
00000090: 3c36 54bd 3a8b a8bc d790 5fbd fc3c 9bbd
000000a0: 5abe bb3d 8f9e 82bd 09dc 5c3c ef9a 353d
000000b0: 0f7e 813d 8a8a 013d 23f3 5c3b 859c cdbc
000000c0: 965b b8bc 0a56 863d edb3 90bd 93f6 d43c
000000d0: b555 0cbd b4cc 4d3d fd84 4b3d a2b9 e4bb
000000e0: b1a3 363c 891e 003d 09ec 213d 8934 2abd
000000f0: 7867 443d e06c 20bd 3d79 46bb 7b24 9f3d
00000100: 99fb a83c 5bcf 8abd 77c7 c03d 343b 9c3d
00000110: affd 4ebd b94c 26bd d2c0 8dbd e106 393d
00000120: c369 97bc 4086 20bd 19be a93b 0a55 73bd
00000130: d870 a33d 5f2d 653c 283d eab9 fdb8 afbd
00000140: af82 4c3c f3f3 783d a5cc 9d3d b1c9 85bd
00000150: 3a20 363d 7f1c 93bd 35aa f6bc cfd0 b13d
00000160: 1e37 b73d 946a 073d b27f 533d c882 50bc
00000170: 1540 c23d 7fde 95bd 9ab5 84bd 90ac 5cbd
00000180: f85a 71bd 4c5c 813d d819 2f3c e16e a33d
00000190: 59fd c33d d011 823d d3b1 643d a27a 88bd
000001a0: 9d9f 963c fc29 bd3d f3cc e03a 9eee 643d
000001b0: 5439 05bc d188 483c f229 b73d bfa5 cfbc
000001c0: b925 ac3c d0c2 60bb c300 9ebd ed1b 903d
000001d0: 8773 6f3b de56 823c 6074 913b 4c91 2c3d
000001e0: 04ca 563d 7c7b a3bd 20dc 5e3d 99ff a2bd
000001f0: 8cc6 95bd 4b11 5c3d 6d28 9dbc 5301 8f3d
-0.011428914 -0.06413539 0.05219454 -0.00049470476 0.0339572 0.07923341 0.08868451 -0.012644496
-0.02842826 -0.041680515 -0.014410692 0.093985006 0.052093353 -0.011615961 -0.07098338 0.062739596
-0.001336898 0.054206282 -0.027904328 0.023780696 0.0983343 0.09108319 0.090956196 -0.04208427
0.029494964 -0.065862596 0.058380596 -0.056120317 -0.056928813 0.049437564 -0.06617449 0.004055106
0.026119977 -0.05502837 0.04943374 0.052346464 -0.051809534 -0.0205742 -0.05458149 -0.07579991
0.09167166 -0.06377899 0.013480195 0.04433721 0.06322872 0.03162626 0.0033714257 -0.025099048
-0.02250461 0.065593794 -0.07065568 0.025996482 -0.034261424 0.05024405 0.049687374 -0.006980137
0.0111474255 0.03127912 0.03953174 -0.041554008 0.047950238 -0.03916633 -0.0030284666 0.0777063
0.020627784 -0.06777831 0.09413045 0.076284796 -0.0505349 -0.040600512 -0.06921543 0.045172576
-0.018483048 -0.03919053 0.005180132 -0.05940727 0.079805076 0.013987868 -0.00044677523 -0.085802056
0.012482329 0.060779523 0.077050485 -0.0653261 0.044464327 -0.071831696 -0.030110458 0.08682405
0.0894606 0.033060625 0.05163545 -0.012726493 0.09484879 -0.073178284 -0.0647995 -0.053875506
-0.058924645 0.06316432 0.010687314 0.07980133 0.095698066 0.06351054 0.05583365 -0.06664015
0.018386656 0.092365235 0.0017150923 0.055891626 -0.008131344 0.012239651 0.08943547 -0.025347589
0.021014081 -0.0034295805 -0.07714989 0.070365764 0.0036537366 0.015910562 0.004438922 0.042130753
0.05243875 -0.07982537 0.054409146 -0.07958908 -0.073132604 0.05372743 -0.019184316 0.069826744
