weights/ngcf_latest.pth (torch, 809911 bytes, 9 tensors)

conv1.bias f4 [18]
000000 90 6c 69 bb fd 84 7b bb dd f1 f6 3a a3 b4 9e 3b
       -0.0035617687 -0.0038378828 0.0018840391 0.004843311
000010 43 aa 70 bb de fb e5 3b 81 d4 f2 39 f2 8d 6b b9
       -0.0036722578 0.0070185503 0.00046316165 -0.00022464225
000020 fc 4b c6 3b 2f 80 be bb 39 62 81 3b 3e 87 14 bb
       0.0060515385 -0.0058136205 0.0039484766 -0.0022663618
000030 8f cf a9 bb 4f 08 3c bb 8d 2f f0 bb 2e ed ce bb
       -0.0051822136 -0.0028691476 -0.0073298872 -0.006314895
000040 27 74 88 39 36 37 af bb
       0.00026026482 -0.005347158

conv1.lin.weight f4 [18, 9993]
000000 86 99 31 bc af 90 54 bc a9 3f af 3c 15 23 10 3c
       -0.0108398255 -0.012973948 0.02139266 0.008797427
000010 65 88 a4 bc 5d 6b c0 bc 97 38 81 3b 31 e0 76 bb
       -0.02008457 -0.023488695 0.0039435136 -0.003767025
000020 f7 59 77 3a f5 6a 18 bc e0 2b 7a 3b 7f 42 2e 3c
       0.0009435708 -0.009302844 0.0038173124 0.010635971
000030 00 63 c8 bc fd 3f 89 3c e7 b5 bf bc a8 91 d9 3a
       -0.02446127 0.016754145 -0.023402167 0.0016599195
000040 0c 75 5d 3c d3 ce 2e ba d7 ad 94 3c 89 6c 82 3c
       0.013516676 -0.00066683925 0.0181493 0.015920894
000050 03 cb bb 3b 28 f4 8c 3c 1f 35 f8 3a 3a 1e aa 3b
       0.005730988 0.017206267 0.001893673 0.0051915916
000060 18 cc 9e 3c df 41 75 3b 84 bf 51 bc eb f8 b0 3c
       0.019384429 0.0037423295 -0.012802009 0.021603068
000070 50 b2 07 3c ab 7c e0 bb 1e f8 a2 3a f0 50 24 3c
       0.008282259 -0.006850799 0.0012433564 0.010029063
000080 12 f5 19 bc 3b 7e 8f bc c6 25 bd 3c 19 ea 1c 3c
       -0.009396808 -0.017516246 0.0230893 0.009577298
000090 a3 ed 77 3c c4 49 6c bc d4 ba 7d bc 62 4f 1e ba
       0.015132341 -0.014421884 -0.015486438 -0.00060390506
0000a0 01 49 6b 3c 2a 87 84 3c d4 03 8c 3c a9 f8 41 bb
       0.014360667 0.016177732 0.01709167 -0.0029597676
0000b0 d6 d6 1d bb 36 fd 44 3c c0 92 df 3b 9b c6 fe 39
       -0.002408435 0.012023261 0.006822914 0.00048594628
0000c0 eb ef 99 3b 17 2f 96 bc d4 44 66 3c f7 d8 d6 3b
       0.00469779 -0.018333001 0.014054496 0.006556626
0000d0 67 16 a3 bb 2c 27 5d 3c 17 9c 21 bb 04 45 87 bb
       -0.004977036 0.013498109 -0.0024659687 -0.0041281004
0000e0 2d ec 62 bc 29 c3 43 3c 2e 71 9a 3b 9f c3 bb bc
       -0.013850254 0.011948385 0.004713199 -0.022920428
0000f0 91 95 c3 bb 79 46 2e bc cd 88 86 bc 3d 2d a1 bb
       -0.0059687574 -0.010636919 -0.016422654 -0.004918723
000100 92 4a 86 bb 51 9b 81 3c c3 97 62 bc c5 73 52 bc
       -0.004098245 0.015821131 -0.013830128 -0.012844984
000110 09 af 2a 3c bc f4 3d 3c b9 17 a3 bb ef 2f 0a bc
       0.010417708 0.011593994 -0.004977193 -0.00843428
000120 71 a0 9a 3c 61 46 8d bc 1e 91 a9 3b 46 1c c8 3b
       0.018875333 -0.017245473 0.00517477 0.006106886
000130 8a 7d ab 3b c2 2a be bc 46 f6 67 3c fb a8 c4 3c
       0.0052334713 -0.023213748 0.014157837 0.024006357
000140 d0 df 93 bc 82 dc 7b bc fe 8e a6 bc de 05 3c bb
       -0.018051058 -0.015372397 -0.020331856 -0.002869002
000150 cc 50 48 3c 87 e7 92 3a 78 d1 6d bc 9e d0 96 bc
       0.012226295 0.0011207917 -0.014515273 -0.018410023
000160 9a f9 ce ba c8 88 81 3c 6a fa c7 bb 74 81 18 bb
       -0.001579094 0.015812293 -0.0061028497 -0.002327052
000170 f9 2f e1 bb 05 be 8e 3c 87 71 cc bb 60 e9 5a 3b
       -0.006872174 0.017424593 -0.0062391195 0.0033403262
000180 aa 7d b4 bc 42 2d 25 bc 8b 97 c0 bc 7d 21 85 bc
       -0.022032578 -0.010081591 -0.023509761 -0.01625132
000190 61 b8 b5 3c f0 c0 bf bc c6 c6 5b bc fd bb a8 bc
       0.022182645 -0.02340743 -0.0134140905 -0.020597452
0001a0 d9 1b fe 3b 63 16 27 bb 05 f8 22 bb c9 d6 26 bc
       0.0077547845 -0.0025495521 -0.002486707 -0.010183045
0001b0 4d e1 29 3c fa 5a 54 bb dc f1 2b 3c 44 0b c2 3b
       0.010368657 -0.003240286 0.0104946755 0.005921753
0001c0 34 b6 70 bc 85 d2 16 3c 3f a6 ae bc ea 6b d3 bb
       -0.014691878 0.009205465 -0.021319507 -0.0064520733
0001d0 f6 37 04 3a 4c 37 a3 bc 55 4a ad 3c 4a bc c1 3a
       0.0005043739 -0.019923829 0.021153608 0.0014780846
0001e0 8f 9d e4 ba 73 f6 aa 3c e7 cd 10 bc 1d e3 3a 3c
       -0.0017441976 0.02086947 -0.008838153 0.011406687
0001f0 07 99 20 3b 02 4b 98 39 b4 55 d1 ba 86 69 89 3c
       0.0024505274 0.00029047584 -0.0015970976 0.01677395
000200 9c b9 b8 bc e4 83 26 bb e1 16 75 bb 95 7f 80 bc
       -0.022549443 -0.0025408203 -0.003739767 -0.015685836
000210 13 0f 95 3c 6c ae 8a bc 96 a0 d7 bb ed f2 be 3c
       0.018195665 -0.016928874 -0.0065804226 0.023309195
000220 12 3e 8c 3c dc 5e b4 bc 45 da b8 bc d3 bd bc bc
       0.017119441 -0.022017889 -0.022565017 -0.023039734
000230 f1 63 a6 3c bf 66 ba 3c 5e ad 4f bc 19 33 c2 3b
       0.020311328 0.022754071 -0.012675611 0.0059265015
000240 04 f1 05 3b e8 dc 57 3a e2 d4 ff 3b d2 0a c1 bc
       0.0020437846 0.0008234517 0.00780736 -0.02356473
000250 d6 18 b1 3b 62 8e 1e 3c a0 42 3a 39 8b 5a 80 bc
       0.005404572 0.009677501 0.00017763162 -0.015668174
000260 91 8f fc 3b cc 59 a5 bc fe 94 78 3c f3 32 cb 3b
       0.007707544 -0.02018442 0.015172241 0.006201142
000270 57 03 cd 3b 04 c2 9a 3b 98 2e 47 bc e3 9d 88 3c
       0.0062565017 0.0047228355 -0.012157105 0.016676849
000280 0d e7 26 3c 90 ea 38 bb 80 8a 95 bc 2c b3 33 bc
       0.010186923 -0.0028215982 -0.018254519 -0.010968011
000290 4c f0 4e b9 80 67 29 bc af 78 a6 bc fc 16 b2 bc
       -0.00019735208 -0.010339618 -0.020321218 -0.021739475
0002a0 a4 25 c0 3c a2 79 95 bc b6 0c 12 3c a6 8c 70 3c
       0.023455448 -0.018246476 0.008914163 0.014681971
0002b0 e5 6b bf bc 31 8f 83 3c e0 74 ac ba 9a 13 1b bc
       -0.023366878 0.01605949 -0.001315739 -0.009465123
0002c0 98 a7 ad 3c e1 05 a4 3b 35 bd 7e 37 3e 23 45 3c
       0.021198079 0.0050055836 1.5183633e-05 0.012032328
0002d0 f5 99 c1 bc ca cc dd bb e5 bf 21 3c 5d d0 b9 bc
       -0.023632983 -0.0067687975 0.009872411 -0.022682363
0002e0 1c a5 da 3b 1e 8b c7 bc 3f 5e b0 bc 99 bd ab bc
       0.0066725146 -0.024358328 -0.021529315 -0.02096443
0002f0 89 4f 6d bc 38 6c 7e 3b 1f 4a 46 bc a2 bd b1 bc
       -0.014484295 0.0038821828 -0.012102633 -0.02169687
000300 13 7d 1d bc d0 8f a6 bc b8 db 65 ba f6 f9 a5 3c
       -0.00961234 -0.020332247 -0.00087683974 0.020260792
000310 71 8d 0f 3c 4f b0 bf 3c 67 cc c4 3c fe e5 0c 39
       0.00876175 0.0233995 0.024023248 0.00013437119
000320 ba 6a ac bc 24 7f ba 3b fb 60 14 3b 7e e9 6f bc
       -0.021046985 0.005691426 0.0022640813 -0.014643071
000330 7d b0 93 3c 39 51 84 bb 25 08 63 bb a4 97 d4 3b
       0.018028492 -0.004038003 -0.0034642306 0.0064878035
000340 0c 14 7d bc 30 43 80 bb 68 0d 10 bc eb 32 ba bc
       -0.015446674 -0.0039142594 -0.008792259 -0.022729358
000350 26 e3 bf 3c 5a b4 a4 3c f2 fa 0a 3b 58 30 aa bb
       0.023423743 0.02010553 0.0021206704 -0.0051937513
000360 fc 79 33 bc 1b b5 7d 3b 04 5f a7 3c 46 82 92 3a
       -0.010954376 0.0038712684 0.02043105 0.001117774
000370 9e a1 16 3c 59 da db 3b b8 4b a2 bc dd 8e 66 bc
       0.009193806 0.0067093787 -0.019811496 -0.014072147
000380 6e b7 83 bb 5b 4d 33 bb 87 c4 67 3c 32 05 5f bb
       -0.0040196693 -0.002735934 0.014145977 -0.0034030196
000390 39 b5 a5 bc 91 cb 8a 3c 59 42 ad bb c7 c6 c5 3a
       -0.020228015 0.016942771 -0.0052874503 0.0015089147
0003a0 79 fc b9 3c 9e 83 3d bc a2 6e b0 bc 62 2a 8a 3c
       0.022703396 -0.0115670245 -0.021537129 0.016865913
0003b0 4d e7 c9 3a 8d 6d 64 bc e1 65 bf bc e4 4c 2a 3c
       0.0015404016 -0.013942135 -0.02336401 0.010394309
0003c0 eb a9 ae bc d4 81 b3 bc 9e 7c 39 bc 67 77 d5 bb
       -0.021321258 -0.021912493 -0.011321215 -0.006514478
0003d0 67 13 90 3c 6f 16 ae 3c 94 e2 a3 bb 0c a2 a5 3c
       0.017587377 0.021250932 -0.0050013755 0.020218872
0003e0 19 45 91 3c f8 5f a3 bc 6c ac b6 bc c1 e4 4e bc
       0.017733144 -0.019943222 -0.022299014 -0.012627781
0003f0 92 a9 ea bb fb 4c 3a bc 64 09 ce 3a bb 43 0c 3b
       -0.0071613276 -0.011370893 0.0015719351 0.0021402675

conv2.bias f4 [18]
000000 f5 d2 68 3b 75 5c b6 bb a7 9b 19 bc c0 f4 1a bc
       0.003552613 -0.005565221 -0.009375489 -0.009457767
000010 4d 16 39 3c 2f 8b aa bb fb 5d f4 3b 72 b8 34 3c
       0.011296821 -0.0052045803 0.0074574924 0.011030303
000020 74 26 13 3c 7a 5c b6 bb a7 ff dd 3b ed 23 a6 bb
       0.008981336 -0.0055652233 0.006774861 -0.0050702007
000030 72 d7 15 bb ed 3d 6e 3b 6e 5c b6 bb 10 f5 b6 39
       -0.002286401 0.0036352829 -0.0055652177 0.0003489633
000040 96 80 a5 ba 00 00 00 00
       -0.0012626823 0.0

conv2.lin.weight f4 [18, 18]
000000 1e ba 2d 3e 13 34 15 3e e2 e1 47 3d 0e 49 2b 3e
       0.1696553 0.14570646 0.048799403 0.16727087
000010 e6 c0 db 3d 3a 07 a9 be 44 87 98 be e2 3d b5 3e
       0.10730152 -0.33013326 -0.297907 0.35398775
000020 e9 81 88 3e 04 b7 41 be 96 f4 b0 3e 21 dd 27 be
       0.26661614 -0.18917471 0.34561604 -0.16392948
000030 94 a4 2d bd ed 9c 8b be 92 b7 10 3e 10 2f a7 3e
       -0.042393282 -0.27268162 0.14132527 0.32653093
000040 85 09 95 be 8c 89 06 be 64 d3 cf 3c 4a 42 a3 3e
       -0.29108825 -0.13138407 0.025369354 0.31886512
000050 af 14 14 be 55 07 44 be 86 e6 90 3e a0 51 52 be
       -0.14461015 -0.19143422 0.28300875 -0.2053895
000060 e3 53 ae ba 2f df cc 3e 16 27 16 bd 99 5d cb 3e
       -0.0013300147 0.40014026 -0.03665837 0.39719847
000070 78 0c 1c bc 45 25 81 be 1b 0b 0d be 3c 4a a6 3e
       -0.009524457 -0.25223747 -0.13773768 0.3247851
000080 d3 3d 66 bb c3 03 cf 3d 3a 7b bc be b2 3a 6d 3e
       -0.0035132065 0.10108139 -0.36812764 0.23166922
000090 3f 20 c1 be 20 04 11 3e bd 9d b0 3d 02 c6 c6 3e
       -0.37719914 0.1416173 0.08623836 0.38822943
0000a0 d7 d2 8a be 45 e4 57 bd 15 8e 94 be 97 bb 78 be
       -0.27113983 -0.05270793 -0.2901465 -0.2429031
0000b0 3a 9b 09 be 57 1f ef 3c ba d5 86 bd 70 f4 66 bc
       -0.1343812 0.029189749 -0.06583734 -0.014096364
0000c0 52 b2 c0 be 72 b2 55 be 23 b2 b4 3e 07 10 39 3e
       -0.37636048 -0.20868853 0.35292158 0.1807252
0000d0 bd 74 ca 3e da 0e 98 be 1a c8 b8 3e f8 01 50 be
       0.3954219 -0.2969883 0.36090165 -0.20313251
0000e0 56 a3 89 3e 95 df b7 be 1b 5a be 3e 32 be 72 be
       0.26882428 -0.35912767 0.3717812 -0.23705366
0000f0 43 88 b5 be 0f 86 be 3e 3a 79 25 3e 34 20 58 be
       -0.35455522 0.37211654 0.16159526 -0.21106035
000100 d7 b2 57 3e 06 e3 4a be a2 34 be be 12 65 37 3e
       0.21064316 -0.19813165 -0.3714953 0.17909649
000110 18 6b 18 3d f6 9f 47 be 34 c9 45 3e 77 c6 17 3e
       0.037211508 -0.19494614 0.19315034 0.14821802
000120 00 be 65 3d 41 59 62 3e f6 b3 0e be 9b db 73 be
       0.0560894 0.2210436 -0.13935837 -0.23814242
000130 94 56 c6 be 49 23 72 be ae e3 33 be a1 62 c3 3e
       -0.3873793 -0.23646273 -0.17567322 0.38161185
000140 e6 5c c4 3e 3a 3f be 3e d3 16 a8 3e 46 d7 76 bd
       0.38352126 0.37157613 0.32829913 -0.060263894
000150 b8 dc c9 be ce 69 e0 bd 48 21 b5 be 3b b2 2a 3e
       -0.39426208 -0.10957681 -0.35376954 0.16669552
000160 ff eb 2c be f0 da fc 3d 54 3c 02 bd 77 48 39 3d
       -0.168869 0.123464465 -0.031795815 0.045235123
000170 70 01 b5 be 03 e8 ca bd d6 a3 f7 3d cf 2a ac 3e
       -0.3535266 -0.09907534 0.12091796 0.3362641
000180 2c 68 ac be a1 f8 c8 be 15 36 eb 3d a3 4f ba 3e
       -0.33673227 -0.3925219 0.11484925 0.36388883
000190 5e 4f 97 3e 3b dc 51 3e 59 d0 9e 3e 9b ee 7a 3e
       0.2955274 0.20494168 0.31018332 0.24505083
0001a0 11 3e 95 be 16 b2 f5 bd 6d 23 8f be c9 4c 91 bd
       -0.29148915 -0.11996858 -0.27956715 -0.07094724
0001b0 4a 35 ca be 19 dd cf 3e 31 60 68 bc d9 e8 8e be
       -0.3949378 0.40598372 -0.01418309 -0.27912024
0001c0 10 53 66 3e bb d1 a2 3e 2e 52 02 3d db 4b 65 bb
       0.22492623 0.31800637 0.031816654 -0.003498784
0001d0 f5 b3 a4 be 05 74 8e bd cf 27 ca 3e 01 15 e2 3d
       -0.32168546 -0.06955723 0.39483497 0.110391624
0001e0 64 99 25 be 40 4c 0f bd b4 be 4e 3d d9 d6 3b 3c
       -0.16171795 -0.034984827 0.050474837 0.011464798
0001f0 2e a4 b8 3e ec 8d ca bc 53 5f 57 3e af e9 c9 3e
       0.3606276 -0.024725877 0.21032457 0.394361
000200 09 b5 c9 3e a6 a5 cf 3e dd c7 81 be 85 6f 4f 3d
       0.3939593 0.40556067 -0.25347796 0.050643463
000210 eb 16 21 3e 26 52 c7 3e 39 fe fd bd b4 c0 80 be
       0.15731399 0.38929862 -0.12402005 -0.2514702
000220 32 1a 78 be de 89 d4 bd 65 c9 c3 be f2 33 8c 3e
       -0.24228743 -0.103778586 -0.3823959 0.2738338
000230 4a 63 97 3d b4 50 c0 bc 3b 59 c1 3e 6b 8c 1e be
       0.07391985 -0.023475982 0.3776339 -0.15483253
000240 76 2c d1 be ef ff ba 3d 3b cd a2 3e c7 4d 97 3c
       -0.40854234 0.09130847 0.31797203 0.018469704
000250 f9 6a d3 bd 7d 80 be 3c 7e c4 98 3d f0 4d fa bd
       -0.10323138 0.023254627 0.07459353 -0.12221897
000260 65 f3 bd 3e 90 8b b4 3e fc 90 8a be c9 09 6b 3d
       0.37099758 0.35262728 -0.2706374 0.05738238
000270 53 ae c5 3d 26 f2 c2 bd 78 3e 10 be da 95 97 3e
       0.0965239 -0.095188424 -0.1408633 0.29606515
000280 82 52 04 be 9e a1 65 3d 8b 85 9b 3e 4b 4e 92 3e
       -0.12922099 0.056062333 0.30375323 0.28575358
000290 b6 0f 1f be d8 1d 8d be 94 1c 5c bd dc 68 39 3d
       -0.15533337 -0.2756183 -0.05373819 0.045266017
0002a0 87 53 4c 3e c2 99 78 be 62 e5 ca be fe bc 8c 3e
       0.19953738 -0.24277404 -0.3962813 0.2748794
0002b0 54 2b 95 3d 6f a9 e9 3d d0 32 c0 3e 28 d8 e5 3d
       0.07283655 0.1140927 0.37538767 0.11222869
0002c0 90 9a b6 bd 1f 78 ad 3e b6 ad bf be 2c e7 01 3e
       -0.08916199 0.33880708 -0.37437218 0.12685841
0002d0 7e 77 6c be 28 d7 b3 be d8 b6 a9 3e 05 63 0a bd
       -0.23092458 -0.3512509 0.3314731 -0.03378584
0002e0 4b 36 af 3e e2 f1 88 3e 9f 28 b1 be ce 37 8d be
       0.3422111 0.26747042 -0.34601304 -0.27581638
0002f0 04 86 01 bc b0 27 42 3e 2e b0 a3 3d 9e 6f ad be
       -0.007905487 0.18960452 0.07992588 -0.3387422
000300 eb 8b 48 3e fd e8 50 3d 8f aa c7 3e 2a 15 08 3e
       0.19584624 0.051003445 0.38997313 0.13289323
000310 f2 a3 94 be dd bc c5 be 2c 89 cd be e2 bb ed 3d
       -0.2903133 -0.38620654 -0.40143716 0.116081014
000320 8c 7b ad 3e df 0b ec bd 10 64 96 be 93 be 9d 3d
       0.3388332 -0.11525702 -0.29373217 0.07702365
000330 8b a7 26 be b7 47 8b be 18 1a 0d bd 95 62 93 3e
       -0.1627485 -0.27203152 -0.034448713 0.2878615
000340 b1 95 a9 be cb 03 1c be 90 47 81 bd ce 50 59 be
       -0.33122018 -0.15235822 -0.063124776 -0.21222231
000350 aa 9c ad 3e 44 de a8 3e 15 95 92 be 42 98 68 3e
       0.33908588 0.32982075 -0.28629366 0.22714332
000360 f7 b4 a9 3e e2 af 89 bd ae d3 ba 3d 6c e6 30 be
       0.33145878 -0.06723 0.09122406 -0.17275399
000370 f5 11 81 be 10 a2 71 be 39 29 5c be 40 29 cb bc
       -0.25209013 -0.23596978 -0.215001 -0.024799943
000380 93 4e 22 3e 1f 12 6a 3e ed 30 89 be 57 76 b1 be
       0.15850286 0.22858475 -0.2679514 -0.346606
000390 42 b0 bf 3e 96 0e a5 be 71 bf 9e bd c3 70 0c 3e
       0.37439162 -0.3223769 -0.07751358 0.1371489
0003a0 2e f5 b6 3e ba 71 ab 3e af 3f 8e bc eb 97 af 3c
       0.35733932 0.33485204 -0.017364351 0.021434745
0003b0 14 5f 4a be 2b 4d 7c bd 85 ad 40 3e d8 29 16 bd
       -0.19762832 -0.06159703 0.18816192 -0.036661
0003c0 cc 48 97 3e 07 9d 3f 3e b7 4c 02 be 1b ce fc 3d
       0.29547727 0.18712245 -0.12724577 0.12343999
0003d0 78 0c 51 3d c6 26 95 bd cc 8b b7 be 18 53 83 3e
       0.05103728 -0.07282786 -0.35848844 0.25649333
0003e0 d9 b2 bf 3e 1b ac 61 3e 42 3b dd bd ab 52 01 be
       0.37441137 0.2203831 -0.10802318 -0.12629192
0003f0 eb e0 66 3e a0 df ad 3e 2c 91 63 be 1f a0 08 3e
       0.22546737 0.33959675 -0.22223347 0.13342331

fc1.weight f4 [128, 36]
000000 ff 55 9f 3d cf d6 29 be 0a b7 bb bd 77 1a e8 3d
       0.07780074 -0.16585849 -0.09165771 0.11333173
000010 e6 ca a3 bd c7 39 83 bd 92 fc 98 3b dd 34 20 bc
       -0.07997684 -0.064075045 0.0046687806 -0.009778229
000020 04 a1 15 3e dd c9 00 3e 40 13 01 bd 52 22 30 bd
       0.14612204 0.12577005 -0.0315125 -0.04300148
000030 cf e7 54 bc 8d 80 fe bd d3 27 1c 3e da 3c ae 3d
       -0.012994721 -0.12426863 0.15249567 0.085077
000040 33 28 9f bd 8f 18 11 bd 20 67 b5 3d e5 4c dd 3d
       -0.07771339 -0.03542381 0.0885756 0.10805682
000050 01 19 b4 3d 26 0e 9a bb 53 68 ea bd d8 5a 5c bd
       0.087938316 -0.0047013937 -0.114456795 -0.053797573
000060 cd c7 90 bd a6 01 08 3e f1 23 13 3e f6 35 ff 3d
       -0.07069359 0.13281879 0.1436918 0.12461464
000070 d7 d3 e7 3c f6 cf 51 bd 6f ff 16 3e 6d e5 04 3e
       0.028299255 -0.051223718 0.14745878 0.12978144
000080 5e 77 14 be b9 14 db bd bb af e6 bd 95 82 11 3e
       -0.1449866 -0.10697312 -0.11263987 0.1420997
000090 8f 4d 20 3e 69 54 29 3c 7f 68 16 be cf 22 42 bd
       0.15654586 0.010335066 -0.146883 -0.047396477
0000a0 45 b7 33 bd 3c 6f 14 3e fe f0 18 be bf fe 16 3e
       -0.04387595 0.14495558 -0.14935681 0.14745615
0000b0 d1 2c 0c be 26 6a 15 be f5 56 aa 3d 17 68 35 bd
       -0.13688971 -0.14591274 0.08317367 -0.04428872
0000c0 51 8b 14 3d 6b 8f ef bd c4 59 8c 3c 26 7a b8 3c
       0.036265675 -0.11697277 0.017132647 0.022519182
0000d0 c4 83 c9 bd 34 3c 0a 3e 98 bb 23 bd 14 09 21 be
       -0.098395854 0.13499528 -0.039973825 -0.1572612
0000e0 6b cd 14 be c0 6d 18 3e 3f 54 2b 3e 59 0b 96 bc
       -0.14531486 0.14885616 0.16731356 -0.018315958
0000f0 41 84 8d 3c 94 37 81 bd 47 3a 10 bd 70 b3 ae ba
       0.017274978 -0.06309429 -0.035211828 -0.0013328623
000100 b4 37 41 bd 79 cc 01 be c1 0e d7 3d 8f 2e dd 3d
       -0.047172263 -0.12675656 0.10500861 0.10799896
000110 9b 1c 97 bd d5 45 11 3e 38 64 9d 3d c1 57 1c be
       -0.07378503 0.14186795 0.07685131 -0.1526785
000120 ef af de bd 08 9b 23 be 9f 2f 5c bc e7 05 ef bd
       -0.108734004 -0.15977108 -0.013439088 -0.11671048
000130 8c 1e 10 be 63 31 04 be 95 d5 cb bc 44 84 ba bd
       -0.14074153 -0.12909465 -0.024882117 -0.09107259
000140 1a de c7 3c 0e fc d2 3d 94 c0 f9 3d f3 6f 62 3d
       0.024397898 0.10301982 0.121949345 0.055282544
000150 c3 88 2f bd 22 ff 0a be 40 ba 2e 3d 51 a9 9e bd
       -0.042855036 -0.13573888 0.04265809 -0.07747138
000160 d8 5f da 3d b8 e6 4f 3d ff 55 a0 bc f5 38 79 bd
       0.10662812 0.05075714 -0.019572256 -0.060845334
000170 cb a4 43 bd 29 47 27 3e 34 1e 0a bb 4f 9b c5 3d
       -0.04776458 0.16335739 -0.0021075131 0.096487634
000180 ca ad 5f bc c3 aa d4 3d 56 07 61 bc 4e db e3 3d
       -0.013652274 0.10384133 -0.013734659 0.111258134
000190 1c c5 85 bd 47 83 54 3d 47 3d 9a bd 32 84 0c be
       -0.06531736 0.05188301 -0.07531219 -0.13722304
0001a0 92 72 f0 3c da 22 06 be fe 15 d3 3d 02 98 cc bd
       0.029351506 -0.13099232 0.10306929 -0.09989931
0001b0 15 2f eb 3d 3c 87 c9 3c a0 3d a2 bc 0a 4d d7 bd
       0.114835896 0.024600618 -0.019804776 -0.10512741
0001c0 60 c6 a9 3b 61 95 c1 3c ae 3f b9 3d 14 92 e9 3d
       0.005181119 0.0236308 0.09045349 0.11404815
0001d0 95 2f 0e 3e 0c 65 fe 3d 25 23 76 3d 14 3c 0a be
       0.13885339 0.12421617 0.06009211 -0.1349948
0001e0 87 cf f7 bd 6a a7 14 3e 27 2f 08 be 6e 3c 96 bd
       -0.121001296 0.14516988 -0.13299237 -0.07335745
0001f0 5e 71 1d bd 24 f4 97 3d 57 73 91 3c 70 40 af 3b
       -0.038438194 0.07419613 0.017755194 0.0053482577
000200 e7 7e 1c bd cb af b2 3c 19 92 fa 3c 5b 3d ed 3d
       -0.03820696 0.02181234 0.030587243 0.11583968
000210 a3 d2 92 3b a6 bc f9 bc b6 26 1f be 23 46 ce bd
       0.0044806763 -0.030485462 -0.15542111 -0.10071971
000220 34 68 98 3d 89 b6 14 bd 2f e0 1d 3e bd 1c f0 3d
       0.0744175 -0.03630689 0.1541755 0.117242314
000230 92 24 4d 3d ea 74 c9 bc 75 18 02 3e 9d 97 6c 3c
       0.050083704 -0.024591882 0.12704642 0.014440444
000240 ff cf cb 3d 2c ab 35 bd 5a 4b 83 bd f0 26 ad 3c
       0.099517815 -0.044352695 -0.064108565 0.02113673
000250 02 ba 07 be a4 53 f4 3d 32 41 0d be 64 95 c5 b9
       -0.1325455 0.11930016 -0.13794401 -0.00037686073
000260 93 b2 91 3d 0b cb 77 bd cb 6e d9 3d 3d cd bf bd
       0.071141385 -0.06049637 0.10616835 -0.09365318
000270 7b b3 ea 3c cc 1b 10 3e 47 48 9d 3d f6 a9 e0 3d
       0.028650036 0.14073104 0.076798014 0.109699175
000280 83 09 a3 bd 7a ac 02 be 37 7a 74 3d e7 a5 82 3d
       -0.079607986 -0.12761107 0.059686866 0.063792996
000290 57 ed 99 3d 67 80 83 3d cf 67 93 bd 66 ad aa 3c
       0.07515972 0.06420975 -0.07197534 0.020834636
0002a0 27 ee d4 bb 54 48 7b 3d 12 bd bc bc 6c da 18 be
       -0.0064981165 0.061348274 -0.023039375 -0.14927071
0002b0 ee d9 12 3e ee b5 d0 3d d2 25 24 3d a7 71 ad bd
       0.14340946 0.1019095 0.04007513 -0.08468943
0002c0 e2 c0 83 bd cd 7b d7 3d 58 1c bd bd 1a 34 24 3d
       -0.06433274 0.1052166 -0.09233922 0.04008875
0002d0 fc 7a 1e 3d ee d5 20 be 5e 50 b7 3d 7c c7 c8 bd
       0.038691506 -0.15706608 0.08950876 -0.098036736
0002e0 9b d5 1d be f2 84 b8 bd 6b b6 12 bd 3e 8c 23 be
       -0.15413515 -0.09009732 -0.0358185 -0.15971467
0002f0 0f 40 0a be 20 23 fd 3b a7 09 14 be 61 d4 fa bd
       -0.13500999 0.0077251345 -0.14456807 -0.12247539
000300 91 25 bc 3d 53 05 4b bd d6 27 3a 3c ee f9 d6 3d
       0.09186853 -0.049565624 0.011362037 0.10496889
000310 10 ca 7e 3d b8 9b 9e 3c b1 5d b5 bd b9 a0 9b 3c
       0.06220442 0.019361362 -0.08855761 0.018997537
000320 39 1b 7b 3b a4 6e b2 bd e3 3b c3 3d 4b 78 ec bd
       0.0038315787 -0.08712509 0.09532907 -0.115463816
000330 90 25 ab 3b 14 86 3b bd a3 fc 76 bd d6 6e de 3d
       0.0052229837 -0.045782164 -0.060299527 0.10860984
000340 c0 5a 2a bd fb 50 ff bd fa ea 0a 3e ab 74 b7 3d
       -0.041590452 -0.12466618 0.13566199 0.089577995
000350 53 ff 9a 3b a8 7f 0b be d1 86 be bd b3 17 1a 3d
       0.004730144 -0.13622916 -0.09303058 0.037620258
000360 bd ef ce bd af e0 8c 3c a6 0f 15 be ad 84 12 be
       -0.1010432 0.017196981 -0.1455675 -0.14308424
000370 f2 8c 29 be f2 ab d8 3d 18 e5 36 3d 7e 31 aa bd
       -0.16557673 0.10579671 0.044652075 -0.08310221
000380 d2 70 9f 3c 70 45 17 3d b6 b0 b3 3d 5d 47 e4 3d
       0.019462977 0.036931455 0.08773939 0.11146424
000390 79 b5 ab bd 86 4a 1f 3e ca 00 fa 3d 86 02 25 be
       -0.083842225 0.15555772 0.12207182 -0.16114244
0003a0 f2 6a 8a 3d 22 6d 3f 3d 0f 26 ef bd a5 b9 cb bd
       0.067586794 0.046734937 -0.11677181 -0.09947518
0003b0 82 1b af 3b 5c 43 f4 3c d9 e6 7d bd cf 8b 09 3e
       0.0053438554 0.029817276 -0.06198773 0.13432239
0003c0 e6 d1 13 3e c7 a8 05 be 72 3d 02 3e 0a 32 07 be
       0.14435539 -0.13052665 0.12718752 -0.13202682
0003d0 f0 d1 c6 3d e0 08 0c 3d cc 75 61 bd 57 a9 35 bd
       0.09708011 0.03418815 -0.05504398 -0.04435095
0003e0 51 09 ce bd 90 30 87 bd 88 e3 68 bb ae f8 99 3d
       -0.10060371 -0.066010594 -0.003553601 0.07518135
0003f0 ef 49 08 bd 0b 4b ef bc a1 38 6a 3c e7 4b 21 3c
       -0.033273634 -0.029210588 0.014295728 0.009844757

fc1.bias f4 [128]
000000 76 0c f5 bc e1 bd f5 bd f4 c2 64 3c b7 d4 c5 bd
       -0.029913168 -0.11999107 0.013962496 -0.09659713
000010 dc 3e 16 3e 87 51 3e 3d d5 3b 58 3d 5b 92 e8 3c
       0.14672416 0.04646447 0.052791435 0.0283901
000020 e5 04 0d be f8 77 35 bc 98 bf c1 bd bf cf c3 3d
       -0.13771398 -0.011075966 -0.09460372 0.09561109
000030 85 3b f8 bd 1a cb 77 bd 67 80 e4 3d 5e 9a 39 bd
       -0.121207274 -0.060496427 0.11157303 -0.04531323
000040 1a ca 18 3d 3b ec a7 3d 7e 9a 00 3e 4a 8f c8 bd
       0.037302114 0.08199354 0.12558934 -0.09792955
000050 49 58 06 be cc a1 01 be ed 9d 2f be fd b6 38 3d
       -0.13119616 -0.12659377 -0.17150088 0.045096386
000060 23 b1 2d bc aa d3 07 3e 1d d9 0f 3e 49 f0 3a 3d
       -0.010601315 0.13264337 0.14047666 0.04563931
000070 2b d0 cf bd f7 e5 e4 3c 93 a6 0c 3d 6a a5 95 bd
       -0.10147127 0.027941687 0.034338545 -0.07306941
000080 ce fd 91 bc f5 ee 15 3e 4d 9c 7a 3d 92 33 0d 3e
       -0.017821219 0.14641936 0.061184216 0.13789204
000090 2f 33 02 3e a7 8f 07 be 06 69 0b 3e a7 56 20 3e
       0.12714837 -0.13238393 0.13614282 0.15658055
0000a0 c6 31 22 be ce f6 d9 bd c3 f2 e3 3d 95 44 ee bd
       -0.158393 -0.106427774 0.111302875 -0.11634175
0000b0 ae ba a2 bd 49 b4 28 be b0 f2 1d bd 77 4a 05 bd
       -0.079457626 -0.16475023 -0.038561523 -0.03254172
0000c0 7e 17 d4 3d 7a 72 b9 3c 50 c3 e2 3c 87 2a 8c bd
       0.10356043 0.022637594 0.027681023 -0.06844049
0000d0 33 91 eb bd 2c fb 17 be 44 ea f6 3c 8c 6f 04 be
       -0.11502304 -0.14841908 0.030141003 -0.12933177
0000e0 a2 5f a8 3c 25 1e 58 bd ed 7d 46 3d 04 20 dd bd
       0.020553414 -0.052763123 0.048459936 -0.10797122
0000f0 4d 6a 18 3e b9 e3 15 3d a5 db 2e 3e 55 b5 f6 3d
       0.148843 0.036594126 0.17075975 0.12046305
000100 10 f2 bd bd 3b c1 06 be e2 c9 b4 3d 4b 69 79 3d
       -0.092746854 -0.13159649 0.088275686 0.06089143
000110 83 fb f5 3c 2c ec 29 be 1c 2b e2 bc 02 cb 8c bd
       0.030027157 -0.16593999 -0.027608447 -0.06874658
000120 9f d2 35 bd c9 d1 1f 3e a5 9e f4 3d 8b 95 39 bd
       -0.044390317 0.1560737 0.119443215 -0.04530863
000130 c7 22 1d 3d bf 8e 1d be ff d7 49 3d 9d 8d ce 3c
       0.038363244 -0.15386485 0.049278256 0.02521401
000140 27 a4 9a 3d b3 0b 11 be bb 1e fa bd 91 39 b6 bd
       0.07550841 -0.14164619 -0.122128926 -0.08897699
000150 8d 5f a9 bd f6 f7 5e 3d 86 f7 2f bc 4d c7 2f 3d
       -0.08270178 0.054435693 -0.0107401665 0.042914677
000160 9e 7c 07 3e f5 91 18 3e 87 cd 24 3e 24 e8 a9 3d
       0.13231131 0.14899428 0.16094027 0.082962304
000170 9f 42 9c 3d 31 96 c9 bd e5 a9 aa 3c f9 e2 1e be
       0.076298945 -0.098431 0.020832965 -0.1551627
000180 e1 9e 4f 3d 40 e3 21 be 43 0f d8 3d 73 ca d6 bd
       0.050688628 -0.15809345 0.10549786 -0.10487833
000190 4a b6 c1 3b 1c 49 df 3d e8 a1 20 3e f2 ec 18 bc
       0.005911623 0.109026164 0.15686762 -0.009333836
0001a0 1b ed 1a 3d 67 18 1c be 97 b5 03 bd 8a 31 73 3d
       0.037823778 -0.15243684 -0.0321556 0.059373416
0001b0 3f 55 8b 3d 1d bd 7e bd de 54 f7 bd 2a 7a 79 3d
       0.06803369 -0.06219207 -0.12076734 0.06090752
0001c0 0c 6e 12 3e e4 b7 06 bc e2 e3 04 bd 33 c8 a7 3d
       0.14299792 -0.008222554 -0.03244389 0.08192482
0001d0 a9 c8 56 3c e0 09 67 bc 0f e2 95 bd 4b 62 c1 3d
       0.013109365 -0.0141014755 -0.07318508 0.09442576
0001e0 d6 45 13 3e a8 1d c9 3c 69 00 fd 3a 47 a7 d6 bd
       0.14382109 0.024550274 0.001930249 -0.10481124
0001f0 b9 91 10 3e cb 33 17 3d 57 82 15 3e 45 5c 59 3d
       0.14118089 0.036914628 0.14600502 0.05306651

fc2.weight f4 [128, 128]
000000 0a 21 0f 3d 62 f8 80 bc 56 5f f5 3c f1 96 5e bd
       0.034943618 -0.015743438 0.029952686 -0.054343168
000010 70 dd c3 3c 79 d2 0d bd 87 bb a5 3c 11 6f 5f bd
       0.0239093 -0.03462455 0.020231022 -0.05454928
000020 bc 2b 22 3c 20 19 21 3d 58 d0 4c bd cf 60 97 bd
       0.009898122 0.0393306 -0.05000338 -0.07391512
000030 83 a1 5a bd 33 ef d4 bc 16 a6 89 bd 90 90 b1 bd
       -0.053376686 -0.025992965 -0.067211315 -0.08670151
000040 85 11 03 bc 03 a6 84 3d ac 90 91 bd de 42 92 bd
       -0.007999782 0.06476977 -0.07107672 -0.0714166
000050 36 9e 4e 3d c3 68 97 bb eb d8 c3 3c f2 04 6b bd
       0.05044385 -0.004620643 0.023907145 -0.057377763
000060 55 7a a6 bd f9 03 cf 3c d0 99 99 3c 91 54 0f bd
       -0.08128802 0.025270449 0.018750101 -0.03499276
000070 83 de f9 3c 61 75 1d bd c9 0c 5d 3d 4e 34 d5 3c
       0.03050161 -0.03844202 0.05396727 0.026025917
000080 eb 97 3e 3c 06 b6 b2 bd e5 e1 86 3d bf c2 a9 bc
       0.0116329 -0.087261245 0.06586055 -0.020722745
000090 c8 60 15 bd 0c 47 b0 3d b0 e8 ff 3c ed 60 88 3d
       -0.03646925 0.08607301 0.031238884 0.06659112
0000a0 61 86 b0 3d 3a dd 00 bd 5a 7d b4 3c 64 fb 19 3d
       0.08619381 -0.031460978 0.022032429 0.03759326
0000b0 f6 73 03 bd 04 28 a3 bd 3e 95 97 3d 2d f3 a3 3c
       -0.03209301 -0.07966617 0.074015126 0.020013416
0000c0 ad c1 08 bd a3 8f f6 3c 10 d7 25 3c 10 5b 8a 3d
       -0.03338783 0.030097788 0.010122076 0.0675565
0000d0 61 60 59 bc 79 e0 25 3d af c0 03 bc c2 82 9f 3d
       -0.013267607 0.040497277 -0.008041545 0.07788612
0000e0 57 4e eb bb 5e 26 a3 bd e8 fb 95 bd 71 64 83 bb
       -0.0071809697 -0.07966302 -0.07323438 -0.0040097763
0000f0 5d 9f 55 bd 24 1a b1 bd d3 88 8c 3d 21 0b 8f 3d
       -0.052153934 -0.08647564 0.06862035 0.069845445
000100 90 27 75 bd ef dd c1 ba ab e5 78 3d 66 35 97 3d
       -0.059852183 -0.0014790873 0.060765903 0.07383232
000110 ce 68 65 3d 94 44 48 3d f6 31 32 3d 7e 6d 66 bb
       0.056008153 0.048893526 0.043504678 -0.0035160477
000120 73 2e 5d 3d b4 c7 b0 3c fc 7c 95 3d f9 a2 8c 3d
       0.053999376 0.0215796 0.072992295 0.06867022
000130 c2 7b 89 bd b4 46 0a bd e2 51 ab bd a4 08 48 39
       -0.06713058 -0.033758834 -0.08365227 0.00019076705
000140 c5 99 8a bd 36 78 23 3c a7 54 c9 bc e0 93 cc bc
       -0.067676105 0.009977391 -0.024576498 -0.024972856
000150 69 3b 00 3d ce e1 13 3b 5b 48 93 bb a2 14 40 3d
       0.031306658 0.002256501 -0.0044947094 0.046894677
000160 7c 5d 5e 3d 94 8f 6f bd 51 e5 a4 3c c8 fd b3 bd
       0.054288372 -0.058486536 0.020128878 -0.08788639
000170 70 34 8b bd 36 f6 1f 3d 4e d2 62 3d 28 3e 96 3d
       -0.06797111 0.039053164 0.055376343 0.07336074
000180 f4 d1 c0 bd c7 1a 74 bb c3 58 32 3d b2 b2 b3 bd
       -0.094150454 -0.0037247406 0.04354168 -0.08774318
000190 db 44 3f 3c 22 0f 7f bd ca fa 3a bc 25 18 a5 3d
       0.011674131 -0.06227029 -0.011412332 0.08061246
0001a0 8b d3 0f bd 94 ef 4b bc 5f b6 eb bc 1d 4c 98 bd
       -0.035113852 -0.012447257 -0.028773485 -0.074363925
0001b0 97 dc 1c bd 0c 3f c0 bd 3a 55 37 bd 5c 56 85 3b
       -0.03829631 -0.09387025 -0.044759013 0.0040691327
0001c0 24 8c 13 3d e1 0c 2e 3c d9 c2 56 3d d1 e9 1d 3d
       0.03602232 0.010623188 0.052431915 0.038553063
0001d0 3b f1 50 bd 5a 66 15 3d a6 c8 76 3c 1c db 90 bc
       -0.051011305 0.036474563 0.015062487 -0.017682604
0001e0 3b 80 51 bd 2d c9 33 3d ae c6 bc bd f4 49 9e 3d
       -0.05114768 0.043893028 -0.09217583 0.07728949
0001f0 c6 fc fc bc 1f 3f 8c bd dd a5 dc bc fd 68 15 3d
       -0.03088225 -0.06847977 -0.026934559 0.036477078
000200 47 fb 73 bc 2f 9c 30 3d 0b cc 95 3d 5f cf b5 3d
       -0.014891452 0.0431177 0.07314309 0.088774435
000210 84 49 6d bc c4 94 18 bd d5 10 9a 3d 95 bd 15 bd
       -0.0144828595 -0.03725125 0.07522742 -0.036557753
000220 51 d8 b5 bd 6d f9 06 3d e2 6b 85 bc 7e db 30 bc
       -0.0887915 0.032952715 -0.016286794 -0.0107945185
000230 ae 09 85 3d 15 25 75 3d 06 a7 a9 3d ac 86 a2 3d
       0.06495987 0.059849817 0.0828381 0.07935843
000240 d3 ac 1d bd bc 6c 77 3c 88 02 ab bd d5 de c8 bc
       -0.038494896 0.015101608 -0.08350092 -0.024520317
000250 d2 14 9e 3d 05 43 b2 bc ad 75 f0 bc 67 19 97 3d
       0.07718815 -0.021760473 -0.029352987 0.07377892
000260 08 fa b8 bd e2 31 27 bd 34 f0 2a bd b3 21 7b bd
       -0.09032065 -0.040819056 -0.04173298 -0.061311435
000270 2a 2e a8 bd cf 00 62 bd 96 07 82 bd 69 00 2d 3d
       -0.0821193 -0.055176552 -0.06349103 0.04223672
000280 03 fe bb bc 78 a0 84 3d a3 9e 1c bd 1f d7 22 3d
       -0.02294827 0.064759195 -0.038237225 0.039755937
000290 b4 9b 88 bd 6d fe 4e 3d c2 fb a3 bd b9 43 73 3d
       -0.06670323 0.050535608 -0.08007003 0.059390757
0002a0 a5 b4 82 3d 22 70 4a 3d ea a8 1f bd b0 c8 e7 bc
       0.063821115 0.049423344 -0.03897945 -0.028293937
0002b0 99 a8 96 3d 6a 25 e9 3b d1 fd 30 3d b3 ed f2 3c
       0.07356376 0.007115056 0.04321081 0.02965436
0002c0 9b f1 ac 3c 54 ea 9f 3d 7b 11 84 bc d8 71 8e 3d
       0.0211113 0.078083664 -0.016121617 0.06955308
0002d0 c0 33 94 3d aa 33 82 bc e2 7d 9c 3c 0f 87 34 3d
       0.07236433 -0.015893776 0.019102994 0.044074114
0002e0 d9 0d 9b bd 54 51 a1 bd 29 12 53 bd d0 23 c6 bd
       -0.075710006 -0.0787684 -0.05153099 -0.096747994
0002f0 ce c2 0b bd 83 99 0b 3b b9 43 a7 3d 2c fc 78 bb
       -0.034121327 0.0021301217 0.08167214 -0.0037992103
000300 95 bd b7 bc bb ba 28 bd e6 cb 11 3d 07 cc 89 bd
       -0.022429267 -0.041193705 0.035594843 -0.06728368
000310 2d e1 a3 bd bd cb c6 3c f5 5c 26 3d 53 74 e8 ba
       -0.08001933 0.024267072 0.040615994 -0.0017734863
000320 80 52 9e 3b a7 b9 14 bd 5b f5 54 3d 1c 94 25 bc
       0.004831612 -0.036309864 0.0519918 -0.010106113
000330 57 41 6b bd eb 8b 16 3d 81 58 eb bc 61 ea 17 3d
       -0.05743536 0.03675453 -0.028728725 0.037088756
000340 af dd 98 3d e5 09 74 3d d9 60 b2 3c 8e 61 a0 3d
       0.07464158 0.05957975 0.021774696 0.07831107
000350 4f c0 74 3d ad a3 23 bd e7 81 ab bb 9a 32 15 bd
       0.059753712 -0.039951015 -0.0052339914 -0.03642521
000360 6e 60 a1 bc 5e 34 fa 3c 03 f2 9b 3d 4e 48 d0 bc
       -0.019699302 0.030542549 0.076145194 -0.025425103
000370 7d 58 4d 3d ca 17 77 3d f8 b7 65 bd 59 33 85 3d
       0.050133217 0.06032542 -0.05608365 0.065039344
000380 51 4f 20 3d 78 75 95 bd ec fd 99 bd 48 d4 0f 3d
       0.039138142 -0.07297796 -0.07519135 0.035114557
000390 3f e4 5c bc 72 be b1 3d 11 63 99 3d ee 03 72 bd
       -0.0134821525 0.08678903 0.074895985 -0.05908578
0003a0 45 ab 8d 3d d8 7a 2e bd 6c 30 b8 bd 9e 7b f1 bc
       0.06917433 -0.04259762 -0.08993611 -0.02947789
0003b0 d3 53 06 bd 2f 67 21 bd e1 e6 3f 3d c3 75 81 3d
       -0.032794785 -0.039405044 0.046851043 0.063212894
0003c0 82 d1 20 3d c9 e7 8f 3c b9 f5 ba bc a0 77 1a 3d
       0.039262302 0.017566578 -0.022822248 0.03771174
0003d0 1c c4 14 3d c6 0e 58 bd e7 dc e3 3c 86 3c 00 bd
       0.036319837 -0.052748464 0.027815295 -0.03130772
0003e0 3b 40 3f bc 05 05 2c 3d f2 04 5f 3d 95 59 52 bd
       -0.011673029 0.041996974 0.054448076 -0.051354963
0003f0 9a 64 df bc 36 25 0e 3d c3 89 cc 3c ab 06 0c 3d
       -0.02726965 0.034703456 0.024968034 0.034186047

fc2.bias f4 [128]
000000 f0 a5 35 bd ec fc 7d bd a4 36 41 bd d4 b7 a3 3d
       -0.044347703 -0.062008783 -0.04717125 0.07994047
000010 6f 5b 13 bd d3 94 95 bd 2e 10 8f bc 81 1e 24 3d
       -0.03597587 -0.073037766 -0.01746377 0.040068153
000020 0c 2c 8f bd 32 d1 f0 3c 72 97 a2 bc c8 a2 51 bd
       -0.06990823 0.029396627 -0.019847605 -0.05118063
000030 a5 71 a1 3d 14 4e 54 3d 11 4e a4 bc 35 46 35 3d
       0.07883004 0.051832274 -0.020056756 0.044256408
000040 15 ee 35 bd 6a af 03 ba 35 c9 a9 bd b8 e1 96 bd
       -0.044416506 -0.0005023392 -0.0829033 -0.07367271
000050 3d a8 ab bd f3 d1 17 bd 6d 6f 67 3d bd 03 79 3d
       -0.08381698 -0.037065458 0.05650275 0.06079458
000060 7b 54 92 3d 86 ca e2 3c d2 5b 75 bd 68 6f fa bc
       0.071450196 0.027684461 -0.05990202 -0.0305707
000070 5c d2 91 3d ca 8f 5d bd 10 de 70 bd 3c c6 3e 3d
       0.07120201 -0.054092206 -0.058805525 0.04657577
000080 c8 db 5c bd b1 96 74 bd 3b e0 53 bc 75 b9 30 3c
       -0.053920537 -0.059714023 -0.012931879 0.010786404
000090 91 1a 31 bd 7a f5 33 bc 19 41 16 3d 3c ec 4c bd
       -0.043238226 -0.010983819 0.036683176 -0.05002998
0000a0 98 45 a0 bd 0d 2a c3 3d 0a cd ea 3c de 62 85 3d
       -0.07825774 0.09529505 0.028662223 0.06512998
0000b0 17 f3 b4 bc 87 11 fc 3c f5 e4 61 bd 14 41 60 3c
       -0.02208857 0.030770076 -0.05514999 0.013687391
0000c0 f9 e0 68 bd 63 98 9d bd cf 0b c5 3c 96 3b 86 3d
       -0.056855176 -0.07695081 0.024053482 0.06554334
0000d0 1a f3 4b 3d 82 69 a6 3c dd fd d8 3b d6 c8 a9 bb
       0.049792387 0.020313982 0.0066220597 -0.005181412
0000e0 94 ee 6c 3d 96 a0 e8 3c 86 48 e7 3c 88 ca 58 bd
       0.057844713 0.028396886 0.028232824 -0.052927524
0000f0 d9 4c b6 bc d0 21 90 bd 78 b0 32 bd cd 6b 49 bd
       -0.02225344 -0.07037699 -0.043625325 -0.049175072
000100 a6 32 25 3c c9 61 cf bc e8 ea 0c bd 5c a5 23 3d
       0.010082876 -0.025315182 -0.03440371 0.03995262
000110 2a 29 1b bd ee 4c 7e b9 56 5f 88 3d 99 8a 47 3d
       -0.037881054 -0.00024251986 0.06658809 0.04871616
000120 c6 81 a5 3c 8f 03 b0 3b 80 fd 33 bd 2a 0a 3e 3d
       0.020203482 0.005371518 -0.04394293 0.046396412
000130 16 f2 b2 3c ae db 33 bd ae a6 b7 bd 47 9a 4d bd
       0.021843951 -0.043910675 -0.089673385 -0.05019596
000140 5b c5 85 bd 3c 39 dd bb bc e1 b9 3c 64 99 b9 bd
       -0.06531783 -0.0067512076 0.022690646 -0.0906246
000150 ab 70 a0 3d a4 84 8f 3d c1 5d d2 3b 2f 0c 8c bd
       0.0783399 0.07007721 0.0064198677 -0.06838261
000160 d1 ad 3f bd 75 08 97 3d 24 7f fa 3c 87 a6 4f 3d
       -0.046796624 0.0737466 0.030578203 0.050695922
000170 be 1a 65 bd d7 97 1e bd 7e 98 28 3b ea 53 1f bd
       -0.055933706 -0.038719025 0.0025725658 -0.038898386
000180 e7 ef 94 bd 8f bd 93 3c ff 7a 9f 3d a8 40 b5 bc
       -0.0727232 0.018034725 0.077871315 -0.022125557
000190 fd 9d 90 3d 2d be 39 3d 0b 18 6e 3c be 1e 29 3d
       0.07061384 0.04534738 0.0145320995 0.041289084
0001a0 81 49 31 bd a6 bd 0d bc 26 50 2f 3d 27 57 bd bc
       -0.04328299 -0.008651173 0.042801045 -0.023112847
0001b0 2d 7e 8f bc 26 8e 80 bd d5 fc 29 3d 57 63 05 bd
       -0.01751622 -0.06277113 0.041500885 -0.03256544
0001c0 7f cd 2e bd f0 39 55 bc ae 93 62 3d 27 01 82 bd
       -0.042676445 -0.013014302 0.05531662 -0.06347876
0001d0 88 ce 14 3b 1e 76 81 3c fa 96 c7 ba 8a 32 b7 bc
       0.002270611 0.015803393 -0.001522749 -0.022362966
0001e0 d8 84 b9 3d b3 d1 98 3d 7f 45 33 bc fc de ef 3c
       0.09058541 0.07461872 -0.010941862 0.029281132
0001f0 ff 63 1e 3c 20 07 db 3c b2 37 a3 bc aa 5f 54 bc
       0.009667396 0.026736796 -0.019924019 -0.012962261

output.weight f4 [1, 128]
000000 c4 2d 01 bd 61 07 91 bd 04 43 2b 3d f7 c0 80 3d
       -0.031537786 -0.070814855 0.041811958 0.06286805
000010 0f 04 82 3d eb 21 77 3d 88 41 ca bc f0 f2 24 bd
       0.0634843 0.06033508 -0.02468945 -0.040270746
000020 b1 af ce 3c 08 e7 72 3b be 6a 83 3d 3a 5e 49 bd
       0.02523026 0.0037063975 0.06416844 -0.049162127
000030 5a a4 69 3d c9 1c 52 3c dc 7c e8 bc 1e f1 ef 3c
       0.057041503 0.012824246 -0.02837985 0.029289778
000040 42 b3 2b bd ab 65 08 bd 9f ec 58 bd 16 b9 2d bd
       -0.041919 -0.033300083 -0.052960034 -0.04241284
000050 d8 0b 9c bd 24 f8 6e 3d 49 93 22 bc 5e a4 42 bd
       -0.076194465 0.058342114 -0.009922811 -0.047520034
000060 4f 80 92 bd a4 69 d6 bc 9e b0 33 bd c9 fe 08 3d
       -0.07153379 -0.02617342 -0.043869607 0.033446107
000070 b2 51 8b bc f8 f0 a1 3d 80 cb 42 bd b5 d1 8f 3d
       -0.017006729 0.07907289 -0.047557354 0.0702242
000080 f5 f9 0b ba d1 a7 86 bd 40 c9 84 3d 00 0b 18 bd
       -0.00053396757 -0.06574977 0.06483698 -0.037119865
000090 e2 9f 4c 3c 37 66 34 3c 06 b2 3a 3d 9a 47 26 3d
       0.012489291 0.011010698 0.045579933 0.04059563
0000a0 19 f0 12 3d a0 b8 17 3d fd 1d 99 bb 2c 83 fa bc
       0.035873506 0.037041306 -0.0046727643 -0.030580126
0000b0 88 25 a4 bd 82 7f ca bc 18 7d b6 bc 36 03 b2 3d
       -0.08014971 -0.024719004 -0.022276446 0.08692019
0000c0 63 be 9d bd ed d3 8a bd 2d 22 b8 3d ba 7d 5a bc
       -0.07702329 -0.06778703 0.089908935 -0.01333564
0000d0 06 74 8f bb 18 11 ba 3d 5c c4 89 3c 4b 52 c0 3c
       -0.0043778447 0.090852916 0.016817264 0.02347674
0000e0 a6 6f 0a bc 76 b7 7c bc 50 31 8a 3b 78 23 09 3d
       -0.008449471 -0.0154246 0.0042173043 0.03348109
0000f0 48 52 78 bd 41 a3 ab 3c 36 36 4f 3d 6c 21 a1 3d
       -0.060625345 0.020951869 0.05058881 0.07867703
000100 5d 1b c3 3c cf cb 15 bc 21 41 f8 3c cf 15 62 bc
       0.023816759 -0.00914283 0.030304493 -0.013799145
000110 34 98 97 bd 2f e3 b0 bc 81 51 f5 3c a5 6b 01 bd
       -0.07402077 -0.021592705 0.02994609 -0.0315968
000120 c7 83 af bc 62 b2 6f bd 41 7f 53 bd 3e 0f b2 3d
       -0.021425141 -0.05851973 -0.05163503 0.086943135
000130 72 d8 66 bd f7 82 7c 3c dd b6 ab bc 49 01 60 bd
       -0.056358762 0.015412084 -0.02096122 -0.054688726
000140 48 10 05 bc 01 60 59 3d 32 b2 a1 3d 23 c8 65 bc
       -0.0081215575 0.053070072 0.07895316 -0.014024767
000150 ec e0 17 3d ff 8c 1e 3c 42 d6 55 3d e8 1b f8 bc
       0.037079737 0.009677171 0.052206285 -0.030286744
000160 d8 9a 0b 3d 73 9f 82 bc 3e 55 8e bc 73 64 aa 3d
       0.034083217 -0.015945172 -0.017374631 0.083199404
000170 0e 48 51 3d 55 67 1f bd a5 29 38 bd 5a 26 ad 3c
       0.051094107 -0.038916904 -0.04496159 0.021136452
000180 f1 d4 82 3b 63 3b 38 3d d1 2d 9b bd 9c 33 b2 3c
       0.0039926698 0.04497851 -0.07577098 0.021753125
000190 e3 e4 11 bc 3b e5 4e 3d 9f e3 81 3d f7 cb 8f bd
       -0.0089046685 0.05051158 0.063422434 -0.07021325
0001a0 f2 92 a1 3d d0 c4 45 bd b7 ac 34 bd 16 fb 6a 3d
       0.07889356 -0.0482834 -0.044110026 0.05736836
0001b0 56 91 a7 bc 55 c0 90 3d b7 5c b0 bd f0 a5 61 bd
       -0.020455044 0.070679344 -0.08611434 -0.05508989
0001c0 22 f9 9c 3c 7b 71 72 3d 02 0d 84 bd 98 30 bc 3d
       0.019161765 0.059190255 -0.064477935 0.09188956
0001d0 8d fc d1 bb 99 c6 79 bc 22 56 26 3d 39 84 a9 bd
       -0.00640828 -0.015245103 0.040609486 -0.082771726
0001e0 0d 3f 81 3d 10 f5 7f 3d e9 5f 4b bd 6c a0 ec bc
       0.06310854 0.06248957 -0.049652014 -0.028885089
0001f0 69 45 a6 bb ac 24 fb 3c bb 05 75 3a 4e df 89 3d
       -0.0050741923 0.030657135 0.0009346862 0.06732045
