weights/ngcf.pth (torch, 809507 bytes, 9 tensors)

conv1.bias f4 [18]
0.0013286852 -0.0007048967 0.0016984689 0.00016852812 0.00012692343 0.0011156477 -0.00063950376 -0.0005485269
0.0007474847 -0.00059285626 0.0017303036 0.00050586154 -0.0004903162 0.00049872306 0.0002443691 -0.0002426605
0.0018372806 0.0016555898
00000000: 4727 ae3a d1c8 38ba 299f de3a ecb6 3039
00000010: c016 0539 ed3a 923a 5fa4 27ba 04cb 0fba
00000020: d9f2 433a e969 1bba 5bcb e23a cb9b 043a
00000030: 9088 00ba bdbc 023a aa1e 8039 af72 7eb9
00000040: e8d0 f03a 6000 d93a

conv1.lin.weight f4 [18, 9993]
0.015204026 -0.010738419 -0.012261347 -0.007274995 -0.009503924 -0.001141722 -0.020828703 0.0026349525
0.006544682 -0.01233262 0.014642507 0.0069305403 -0.011387072 -0.0016650388 0.019459683 0.007524671
-0.004919856 -0.006786505 -0.0003463511 0.013510991 -0.015343588 -0.01136582 -0.011384261 -0.018706365
0.008856118 0.00759776 -0.020187829 0.0036250302 -0.020187628 -0.0118761165 -0.00830106 -0.02375449
-0.011008267 0.014616904 -0.006638661 -0.0037618817 0.012012307 -0.015161532 0.012914829 -0.0053174896
-0.016864654 0.002855081 0.0063079116 -0.0022127132 0.020067014 0.0073443917 -0.010790594 0.014904405
-0.017540915 -0.011910635 0.021254918 -0.018123996 -0.02446201 0.020112522 -0.0030200852 -0.0072283032
-0.0045317067 -0.002901875 -0.02316969 -0.016086826 -0.020474613 -0.009079292 0.012905149 0.007079835
-0.011285849 -0.022747241 -0.013356802 -0.023342783 -0.00993721 -0.021736128 -0.017741561 0.0013053926
0.009556456 -0.0068884133 -0.0033309269 0.0022525175 -0.0076999334 0.016587121 -0.0015869333 0.01724529
0.0040007625 0.009206701 0.009217762 -0.014117216 -0.0020649382 0.0011264908 -0.0074026347 0.019827783
0.018415822 -0.0039345175 -0.00964172 -0.011287848 -0.011315585 0.004413251 0.0031206685 0.021631692
-0.0065086633 0.0054331985 0.0044472595 -0.0039463253 0.0061917473 0.013056471 0.010310326 -0.017572513
-0.0084380675 0.006698439 0.0023449555 0.014871202 -0.0039553666 -0.024227843 0.01875456 0.008050513
0.021959532 -0.0007323839 -0.0029872619 -0.01592894 0.020381734 -0.023670651 -0.021743271 0.0077700103
0.017853187 -0.019238535 -0.009529808 0.015626403 0.0024178603 -0.014715178 0.008905238 -0.00010545701
0.011324948 -0.0017422717 -0.0053909253 -0.0015437255 0.0047554527 -0.0046787187 -0.013964306 0.01641131
-0.022089757 -0.0084358025 -0.009369295 0.0013753709 -0.006407864 -0.010592584 -0.0034686206 0.007169991
0.0028064165 -0.02438711 0.008156053 -0.019412534 0.004531237 0.0017989795 -0.00601722 0.019272627
8.02794e-05 -0.0012206067 -0.022609612 0.0015873068 -0.016056549 0.0025289003 0.019421913 -0.013081832
0.013492964 0.018066462 0.023580784 -0.0035799872 0.0048074177 0.016419018 -0.02188016 0.008793497
0.008614048 0.0074525597 -0.014231171 -0.021047983 0.012519445 0.022556398 -0.012045379 -0.004031333
0.006985281 0.018865561 -0.0012895806 -0.0010625944 -0.009456328 -0.0033926251 0.018748732 -0.00276344
-0.0028398877 -0.019857507 0.021247312 0.024008945 0.0021061548 0.0067514577 -0.017254064 -0.004702994
0.011723542 -0.019078402 0.021481453 -0.023588676 0.020376297 0.015371716 0.020211624 -0.0023264324
-0.002355774 0.009045596 -0.016298534 0.010185917 0.018892705 0.018525366 -0.0106313545 0.013833065
-0.010547194 -0.005410461 0.022682592 0.019924613 0.014597061 -0.010538225 0.004275514 0.0110046575
0.010617169 0.0005686182 -0.0069388053 0.015339482 -0.0134902 -0.0106865475 0.018545838 0.020939259
0.0009820695 -0.0074606673 0.000841406 -0.010341658 0.017542731 -0.0010167053 0.013469216 -0.0044780984
0.012882927 -0.019050315 0.012546505 0.0062953304 0.013245243 0.007450949 -0.013595753 -0.003310498
-0.01810567 -0.015911112 0.0049732625 0.013121735 -0.012092376 -0.003115109 0.002228677 0.00029381
0.0077361655 0.0032999713 -0.0038928806 -0.0013974078 0.024339335 0.0043121926 0.01951513 0.00052999996
00000000: 4f1a 793c 32f0 2fbc d1e3 48bc 1563 eebb
00000010: 59b6 1bbc d5a5 95ba f5a0 aabc 2baf 2c3b
00000020: c674 d63b c20e 4abc 20e7 6f3c 9619 e33b
00000030: d790 3abc 6e3d daba ea69 9f3c 8491 f63b
00000040: be36 a1bb 5561 debb 7596 b5b9 345d 5d3c
00000050: ac63 7bbc b437 3abc 0d85 3abc 173e 99bc
00000060: 4019 113c a1f6 f83b f260 a5bc ea91 6d3b
00000070: 8660 a5bc 0b94 42bc 2b01 08bc c798 c2bc
00000080: 055c 34bc bd7b 6f3c 2089 d9bb e789 76bb
00000090: 44cf 443c 1368 78bc b898 533c 563e aebb
000000a0: be27 8abc 501c 3b3b 99b2 ce3b 2b03 11bb
000000b0: 9463 a43c 39a9 f03b 08cb 30bc 9b31 743c
000000c0: f7b1 8fbc d324 43bc cb1e ae3c c678 94bc
000000d0: 8e64 c8bc 04c3 a43c 9fec 45bb 67db ecbb
000000e0: b67e 94bb 622d 3ebb 5dce bdbc 85c8 83bc
000000f0: 60ba a7bc 50c1 14bc 1e70 533c f6fd e73b
00000100: 48e8 38bc 6c58 babc 7dd6 5abc 5d39 bfbc
00000110: aecf 22bc f70f b2bc c056 91bc b519 ab3a
00000120: ae92 1c3c 33b8 e1bb ae4b 5abb f99e 133b
00000130: b94f fcbb b7e1 873c a500 d0ba ff45 8d3c
00000140: d418 833b b4d7 163c 1906 173c e54b 67bc
00000150: ea53 07bb c2a6 933a cd91 f2bb e06d a23c
00000160: c7dc 963c 20ed 80bb 4ef8 1dbc abf0 38bc
00000170: 0165 39bc 089d 903b 2184 4c3b f234 b13c
00000180: a046 d5bb f908 b23b 51ba 913b 2d50 81bb
00000190: 24e4 ca3b cfea 553c a4ec 283c 3bf4 8fbc
000001a0: d23f 0abc 947e db3b d3ad 193b 58a6 733c
000001b0: 059c 81bb 7879 c6bc 2aa3 993c 4de6 033c
000001c0: 7ae4 b33c 74fd 3fba f0c5 43bb 697d 82bc
000001d0: 98f7 a63c f4e8 c1bc f21e b2bc 929b fe3b
000001e0: d940 923c 229a 9dbc e922 1cbc f102 803c
000001f0: f774 1e3b ee17 71bc 46e7 113c cd28 ddb8
00000200: 468c 393c f05c e4ba 5ca6 b0bb d556 caba
00000210: a1d3 9b3b f04f 99bb 8bca 64bc 0371 863c
00000220: 94f5 b4bc 5236 0abc ac81 19bc ca45 b43a
00000230: 0ff9 d1bb 848c 2dbc cc51 63bb 3ef2 ea3b
00000240: dbeb 373b 7ac7 c7bc f7a0 053c 0907 9fbc
00000250: c57a 943b bccb eb3a 1a2c c5bb a1e1 9d3c
00000260: ad5b a838 c4fc 9fba cb37 b9bc 2e0d d03a
00000270: 0689 83bc e8bb 253b b41a 9f3c 2e55 56bc
00000280: 9811 5d3c 1e00 943c 7d2c c13c 389e 6abb
00000290: 8b87 9d3b 2d81 863c 053e b3bc 9a12 103c
000002a0: f021 0d3c 9a34 f43b dc29 69bc d26c acbc
000002b0: 5c1e 4d3c 32c8 b83c fb59 45bc 4619 84bb
000002c0: c9e4 e43b f38b 9a3c 2507 a9ba c046 8bba
000002d0: b7ee 1abc ce56 5ebb f196 993c d41a 35bb
000002e0: 691d 3abb 36ac a2bc d80e ae3c 68ae c43c
000002f0: 6a07 0a3b 553b dd3b 6558 8dbc 931b 9abb
00000300: 1914 403c 4f4a 9cbc dff9 af3c 0a3d c1bc
00000310: 31ec a63c a6d9 7b3c d992 a53c 0f77 18bb
00000320: 5463 1abb fb33 143c 8184 85bc d5e2 263c
00000330: e0c4 9a3c 82c2 973c 222f 2ebc 14a4 623c
00000340: 23ce 2cbc 3d4a b1bb d8d0 b93c f138 a33c
00000350: 8328 6f3c 85a8 2cbc 9c19 8c3b e14c 343c
00000360: a2f3 2d3c 520f 153a eb5e e3bb 7352 7b3c
00000370: 0006 5dbc a116 2fbc 71ed 973c cf88 ab3c
00000380: c9b8 803a 9d78 f4bb cd91 5c3a 0f70 29bc
00000390: c6b5 8f3c f842 85ba fdad 5c3c 03bd 92bb
000003a0: ea12 533c 680f 9cbc db8f 4d3c 0f49 ce3b
000003b0: 9302 593c 1727 f43b b9c0 5ebc f1f4 58bb
000003c0: 5852 94bc 0558 82bc c0f6 a23b 8cfc 563c
000003d0: 1a1f 46bc db26 4cbb ff0e 123b 830a 9a39
000003e0: a97f fd3b 5544 583b b31f 7fbb 3a29 b7ba
000003f0: 4963 c73c 4b4d 8d3b 32de 9f3c b2ef 0a3a

conv2.bias f4 [18]
-0.0002703954 0.0 0.00021292608 0.0023517215 0.0 0.0016647049 0.0017658208 -0.0011635374
0.0030880333 -0.0010567616 -0.00112291 0.0 -0.00097491825 0.0030030762 0.0028361336 0.003179621
-0.0012097381 0.0020148684
00000000: dbc3 8db9 0000 0000 e944 5f39 571f 1a3b
00000010: 0000 0000 3a32 da3a 1d73 e73a d681 98ba
00000020: 9a60 4a3b 0983 8aba 9b2e 93ba 0000 0000
00000030: a891 7fba 42cf 443b 6dde 393b 3061 503b
00000040: 1390 9eba e20b 043b

conv2.lin.weight f4 [18, 18]
0.3421947 -0.05431041 -0.24736117 -0.21172579 0.4074355 -0.27655804 0.27564612 0.033415727
-0.31875843 -0.37006128 -0.39599085 0.0020048276 0.25366688 0.17182042 0.22290182 -0.26946643
0.23303223 -0.3169491 -0.40799356 0.38559842 0.06827584 0.37524584 -0.037043706 -0.2007208
-0.10822268 -0.100059666 0.22048783 0.08946662 -0.29635787 -0.28575876 0.1306602 0.2870417
-0.30874497 0.35564485 -0.24067271 -0.14174712 0.2485168 0.40546647 0.35092095 0.094362296
0.28477404 -0.18327521 0.38365886 0.4024427 -0.14252253 -0.24166824 0.12663502 0.07404529
0.37763426 0.27628788 -0.023262369 -0.33133438 0.23975213 0.0505715 0.13400014 -0.20095158
0.21035422 0.22606422 0.27233824 0.032770727 -0.17470568 -0.25394392 -0.0324403 0.17794864
-0.03275412 -0.212057 -0.08342506 0.078154616 0.11668366 0.14412904 0.29505762 0.37757948
-0.29062128 -0.20274545 -0.076351106 0.3161505 -0.3431669 0.13924487 -0.36293173 0.13071841
-0.33212775 0.1630878 -0.38332865 -0.23392405 0.30643347 -0.32903308 -0.28978845 0.13880979
-0.052603465 -0.35751104 0.33859745 -0.39637223 -0.0047411816 0.09370274 -0.31448093 0.19548883
0.13974105 -0.07110323 -0.13245474 -0.04990125 0.40051416 -0.29866865 -0.3287185 0.31508213
-0.20725632 0.15571822 0.07159638 0.2857478 0.26987562 -0.30377367 0.32477894 -0.38910908
0.11543028 0.15025356 -0.29284924 0.3987057 0.15455721 0.007640305 -0.058252648 -0.11643706
-0.26529863 -0.020821033 0.31437883 -0.21047255 0.2082807 -0.16805892 0.0071751033 0.1045542
0.3671426 -0.05577538 0.1298623 0.17049706 -0.13417217 0.07904489 -0.22512065 0.08476181
-0.06080842 -0.2931806 -0.1776605 0.090018466 -0.33385766 0.29427338 -0.17670867 -0.16712397
0.016704656 -0.39225248 0.39655367 -0.13132623 -0.27769214 -0.08228953 0.077382065 -0.2120063
0.3734112 -0.08310571 0.032217097 0.1378321 0.22975498 -0.033518307 0.08134423 -0.019479955
0.22410268 0.27787298 0.13086528 -0.1744454 0.2535219 0.07077342 -0.25027463 -0.3999757
-0.30062565 0.23707485 0.27183574 -0.34331307 -0.0707505 -0.22448587 0.18314716 -0.029517977
-0.32575497 -0.36977807 -0.3933156 0.3456432 -0.025813863 -0.026488958 0.10643165 0.24682233
0.012478078 -0.3996621 -0.35218194 0.32319114 -0.35926777 0.22277313 0.03054901 0.17717265
0.40407202 0.11927981 0.12230813 -0.07097679 0.12339495 0.007601827 -0.35518384 -0.31218567
-0.18114232 0.23716897 -0.32025582 -0.17598917 -0.17316283 0.07306905 -0.2591579 -0.08170778
-0.34154788 -0.33054963 -0.05782519 -0.39577973 0.29658353 0.1551798 0.35051167 -0.2750822
-0.028018078 0.34846953 -0.4026024 0.15184644 -0.188603 -0.23559748 -0.34287128 -0.20222053
-0.26870275 0.33490294 -0.28936782 -0.041145343 -0.123661354 0.21723858 0.05226312 0.24885423
-0.104336925 0.2200069 0.3434623 0.24131157 0.072697 0.08145042 -0.16467907 0.041435797
-0.38956955 0.011962137 -0.18462728 -0.20339067 0.34524804 0.37951875 -0.31675726 -0.022725385
-0.17732435 -0.13252981 0.4002968 0.12725423 -0.160684 0.37619725 0.31374055 0.15517461
00000000: 2534 af3e 9874 5ebd 3f4c 7dbe a5ce 58be
00000010: 639b d03e 0499 8dbe 7d21 8d3e eede 083d
00000020: 4e34 a3be ac78 bdbe 50bf cabe 6d63 033b
00000030: a0e0 813e b1f1 2f3e 6040 643e 81f7 89be
00000040: 00a0 6e3e 2747 a2be 88e4 d0be 286d c53e
00000050: 34d4 8b3d 3920 c03e 24bb 17bd c189 4dbe
00000060: daa3 ddbd 15ec ccbd 90c7 613e 463a b73d
00000070: 38bc 97be f94e 92be cacb 053e 21f7 923e
00000080: d213 9ebe 1517 b63e e872 76be 2826 11be
00000090: 307b 7e3e 4d99 cf3e e9ab b33e 0541 c13d
000000a0: e7cd 913e 7fac 3bbe ef6e c43e f80c ce3e
000000b0: 6df1 11be e177 77be 9cac 013e 0fa5 973d
000000c0: 4759 c13e 9b75 8d3e b990 bebc a9a4 a9be
000000d0: 9581 753e 1024 4f3d 5537 093e 40c6 4dbe
000000e0: 1967 573e 617d 673e eb6f 8b3e 993a 063d
000000f0: 0ce6 32be f004 82be 1fe0 04bd 2b38 363e
00000100: 2f29 06bd 7825 59be c2da aabd 870f a03d
00000110: d8f7 ee3d 9096 133e cb11 973e 1952 c13e
00000120: 50cc 94be 819c 4fbe f85d 9cbd 7ade a13e
00000130: 92b3 afbe 3596 0e3e 30d2 b9be 0cdb 053e
00000140: a60c aabe 7d00 273e a743 c4be c989 6fbe
00000150: d9e4 9c3e 0677 a8be 275f 94be 2724 0e3e
00000160: bb76 57bd b00b b7be a55c ad3e 4df1 cabe
00000170: ea5b 9bbb 39e7 bf3d a503 a1be 392e 483e
00000180: 4718 0f3e 929e 91bd 37a2 07be 4165 4cbd
00000190: 3110 cd3e 19eb 98be cb4d a8be 7252 a13e
000001a0: 003b 54be 9974 1f3e 1fa1 923d 894d 923e
000001b0: 232d 8a3e 3988 9bbe 6d49 a63e 4e39 c7be
000001c0: b666 ec3d 12dc 193e 56f0 95be 2723 cc3e
000001d0: 3f44 1e3e 865b fa3b 549a 6ebd 8e76 eebd
000001e0: 39d5 87be df90 aabc 43f6 a03e 1e86 57be
000001f0: 8947 553e a317 2cbe 211d eb3b 8320 d63d
00000200: 1dfa bb3e ba74 64bd 9ffa 043e c896 2e3e
00000210: 6e64 09be 4ae2 a13d 0786 66be 9a97 ad3d
00000220: 4012 79bd c51b 96be a2ec 35be 9a5b b83d
00000230: 64ef aabe 00ab 963e 1ef3 34be 8c22 2bbe
00000240: 34d8 883c 51d5 c8be 1509 cb3e 627a 06be
00000250: aa2d 8ebe 6a87 a8bd 7d7a 9e3d 2e18 59be
00000260: c12f bf3e 5433 aabd 13f6 033d dc23 0d3e
00000270: e444 6b3e 7e4a 09bd ce97 a63d 6d94 9fbc
00000280: 2c7b 653e 5e45 8e3e 8c01 063e d1a1 32be
00000290: 9fcd 813e a8f1 903d ff23 80be 9dc9 ccbe
000002a0: 9beb 99be c0c3 723e 0e2e 8b3e bbc6 afbe
000002b0: a3e5 90bd a0df 65be ee8a 3b3e afcf f1bc
000002c0: 5bc9 a6be 8d53 bdbe aa60 c9be 25f8 b03e
000002d0: 9877 d3bc 5fff d8bc d6f8 d93d febe 7c3e
000002e0: da70 4c3c 83a0 ccbe 3151 b4be 4f79 a53e
000002f0: f2f1 b7be a41e 643e eb41 fa3c bf6c 353e
00000300: 87e2 ce3e f948 f43d af7c fa3d 475c 91bd
00000310: 7eb6 fc3d bf18 f93b a8da b5be cdd6 9fbe
00000320: 5f7d 39be 6cdc 723e 92f8 a3be 8136 34be
00000330: 9951 31be 3aa5 953d 58b0 84be 6956 a7bd
00000340: 5ddf aebe cd3d a9be 1bda 6cbd a4a3 cabe
00000350: ccd9 973e 74e7 1e3e 4476 b33e 93d7 8cbe
00000360: 2b86 e5bc 996a b23e e721 cebe a27d 1b3e
00000370: 2521 41be 7740 71be d38c afbe e612 4fbe
00000380: 6893 89be 6678 ab3e 0528 94be 0588 28bd
00000390: 2a42 fdbd ca73 5e3e da11 563d a5d3 7e3e
000003a0: 99ae d5bd 7d49 613e 4ada af3e 611a 773e
000003b0: 2ae2 943d 7acf a63d a1a1 28be 95b8 293d
000003c0: a975 c7be d7fc 433c ef0e 3dbe a545 50be
000003d0: 5ac4 b03e 4850 c23e 022e a2be 962a babc
000003e0: 8494 35be e5b5 07be b4f3 cc3e ef4e 023e
000003f0: 598a 24be ed9c c03e 9aa2 a03e 18e6 1e3e

fc1.weight f4 [128, 36]
-0.14189015 0.16599497 -0.1475547 -0.058471475 -0.044559814 0.11276294 -0.1631778 0.15904471
0.1154526 -0.018364534 0.15144983 -0.024288801 0.11654914 -0.044322297 0.06104905 -0.12757356
-0.09047645 0.13703479 0.09497761 0.037802093 -0.13833699 0.056393825 0.045740344 -0.13534427
0.1379076 0.051652133 0.008176606 -0.008585158 -0.12381201 0.030569207 -0.060683846 -0.059708755
0.0737262 -0.03492963 0.05494546 -0.009377185 -0.13034075 0.0995773 -0.080558255 -0.05285557
-0.1558649 -0.0078996755 0.020420242 -0.11856741 0.14823449 0.13943757 -0.030702788 -0.06582205
-0.07223038 0.07581092 0.1371631 -0.069264 0.16497721 -0.03584539 -0.11257378 -0.065246984
0.018606335 -0.1054569 -0.057393212 0.041539747 -0.07899637 0.034107756 -0.0033573168 0.1164063
-0.023259347 -0.065103054 -0.12072933 0.008019126 0.035031818 -0.16729937 -0.16466469 0.06315337
-0.0012023537 0.058713913 0.09643566 -0.023759885 -0.037595544 -0.031906568 -0.025291722 0.089731745
0.02575394 0.012634972 -0.1612011 6.563964e-05 -0.044320293 -0.06986216 0.16248824 -0.13720515
-0.009491692 -0.019321274 -0.039065413 -0.0003802281 0.11126927 0.100782484 0.1649909 0.010941692
0.01558427 0.12978935 0.12777337 0.105452575 -0.1619567 0.07754813 0.036862783 0.008254732
-0.11641173 0.10386274 -0.0808779 -0.024132753 -0.008341608 -0.13226412 -0.042285144 0.047180895
-0.048010226 -0.043508876 -0.10707445 -0.12511973 -0.13747627 0.123098895 0.039365448 -0.06929263
0.06096838 0.095045544 0.00883607 -0.012424023 -0.036037095 0.010614668 0.087553054 0.08446295
0.014754092 -0.0649088 0.11292402 0.050239548 0.09880156 0.08095986 -0.012532401 0.12062174
0.09642989 0.038791332 0.14031318 0.07394305 -0.060650297 0.14048372 0.16485195 -0.049866505
0.0024240264 0.05228263 -0.13320506 -0.03086663 -0.082165845 -0.07381804 -0.05965087 -0.11497486
0.16906331 -0.03142511 0.15061818 -0.15981908 0.07142023 -0.11132418 -0.099774845 -0.060408935
0.12734598 -0.07201203 0.017624684 -0.10106742 0.06320981 -0.03434024 -0.139761 0.15798853
-0.12569532 0.0048646927 0.0764249 -0.07221068 -0.06246368 0.028818736 0.068130754 0.067155235
-0.15450142 0.13552077 0.06617104 -0.014068681 0.0060215015 0.158322 -0.07694337 -0.15950936
-0.08868751 -0.1635821 -0.13617836 -0.12385955 -0.0027874717 -0.11434281 0.08057482 0.11878657
0.09448853 0.12933344 0.11179457 -0.087530985 -0.15229166 0.027954984 -0.08420331 -0.12953067
-0.040397815 -0.13151309 -0.11612578 -0.014954135 -0.12456511 0.13807213 0.071124956 0.14320433
-0.1654244 0.15594484 -0.1466876 -0.14233997 -0.09041297 -0.15180728 -0.028688818 -0.06273147
-0.10891809 -0.14190526 -0.029886477 0.11021968 -0.15480763 -0.04972692 -0.02812326 0.1263698
-0.102310106 -0.12536152 -0.053884838 -0.044656552 0.007182998 0.16056485 0.03146183 0.15280218
0.12014265 0.052056517 0.1054032 -0.0928715 -0.027315324 -0.10875111 0.13045743 -0.011867387
0.113496825 -0.01800343 0.1450083 0.10261563 -0.0033047935 -0.07518924 -0.12214355 -0.038066264
-0.14102283 -0.11327962 0.14056678 0.0692284 -0.13086082 -0.14474398 -0.09127311 -0.12845343
00000000: a74b 11be 96fa 293e 9418 17be c97f 6fbd
00000010: 5a84 36bd 42f0 e63d 1518 27be 9edc 223e
00000020: 6a72 ec3d 3871 96bc aa15 1b3e 4ff9 c6bc
00000030: 51b1 ee3d 4c8b 35bd 920e 7a3d a5a2 02be
00000040: b84b b9bd d952 0c3e 9f83 c23d 5ed6 1a3d
00000050: 36a8 0dbe 36fd 663d 3a5a 3b3d b097 0abe
00000060: a637 0d3e 3091 533d 2cf7 053c c3a8 0cbc
00000070: 2791 fdbd 466c fa3c a08f 78bd 2b91 74bd
00000080: c3fd 963d 5f12 0fbd 7e0e 613d c4a2 19bc
00000090: 0c78 05be 2fef cb3d bafb a4bd 157f 58bd
000000a0: 0c9b 1fbe a46d 01bc 5a48 a73c 78d3 f2bd
000000b0: c8ca 173e b9c8 0e3e 6a84 fbbc b6cd 86bd
000000c0: 85ed 93bd c142 9b3d 7c74 0c3e 49da 8dbd
000000d0: c9ef 283e 9ed2 12bd 158d e6bd 36a0 85bd
000000e0: 506c 983c caf9 d7bd 2515 6bbd 9525 2a3d
000000f0: d9c8 a1bd 93b4 0b3d 6e06 5cbb 6d66 ee3d
00000100: 638a bebc c054 85bd f040 f7bd a762 033c
00000110: 867d 0f3d 8750 2bbe dc9d 28be 8e56 813d
00000120: 4c98 9dba 007e 703d 0f80 c53d 17a4 c2bc
00000130: c9fd 19bd 76b0 02bd 9630 cfbc 47c5 b73d
00000140: edf9 d23c ea02 4f3c e711 25be 03a8 8938
00000150: 3289 35bd e413 8fbd 5163 263e 827f 0cbe
00000160: 0b83 1bbc a647 9ebc 0e03 20bd 5a59 c7b9
00000170: 25e1 e33d 0c67 ce3d 60f3 283e c844 333c
00000180: 2a55 7f3c 80e7 043e 06d7 023e 85f7 d73d
00000190: fad7 25be 8ed1 9e3d 6efd 163d db3e 073c
000001a0: 4669 eebd fdb5 d43d 50a3 a5bd 0db2 c5bc
000001b0: 3dab 08bc 3f70 07be 3033 2dbd c140 413d
000001c0: 5fa6 44bd 5d36 32bd d949 dbbd 631f 00be
000001d0: 94c6 0cbe 461b fc3d aa3d 213d 4be9 8dbd
000001e0: fbb9 793d 3da7 c23d 2ac5 103c 218e 4bbc
000001f0: a29b 13bd 25e9 2d3c 044f b33d e9fa ac3d
00000200: 26bb 713c e8ee 84bd b544 e73d fcc7 4d3d
00000210: 7958 ca3d 48ce a53d b354 4dbc 8808 f73d
00000220: 097d c53d a9e3 1e3d 42ae 0f3e 746f 973d
00000230: 726c 78bd f7da 0f3e f3ce 283e d240 4cbd
00000240: 6adc 1e3b 5026 563d e866 08be 04dc fcbc
00000250: 9146 a8bd ea2d 97bd 7854 74bd f077 ebbd
00000260: ef1e 2d3e 9eb7 00bd a73b 1a3e 9da7 23be
00000270: c544 923d effd e3bd c156 ccbd 5c6f 77bd
00000280: fc66 023e 0b7b 93bd a461 903c 6ffc cebd
00000290: 2574 813d 5aa8 0cbd 821d 0fbe bfc7 213e
000002a0: 46b6 00be 0068 9f3b a884 9c3d 31e3 93bd
000002b0: ead9 7fbd 4515 ec3c 2388 8b3d af88 893d
000002c0: 9f35 1ebe f5c5 0a3e af84 873d 5380 66bc
000002d0: 0450 c53b 2a1f 223e 7c94 9dbd 6c56 23be
000002e0: cca1 b5bd 1182 27be 5772 0bbe 13aa fdbd
000002f0: 04ae 36bb 902c eabd 6904 a53d 6046 f33d
00000300: 3483 c13d fc6f 043e 8df4 e43d 7243 b3bd
00000310: 58f2 1bbe da01 e53c c972 acbd b0a3 04be
00000320: 2e78 25bd 5eab 06be 5ad3 edbd 3002 75bc
00000330: fe1b ffbd c862 0d3e f6a9 913d 28a4 123e
00000340: 0465 29be 01b0 1f3e 4635 16be 92c1 11be
00000350: 6f2a b9bd 5e73 1bbe d004 ebbc 5b79 80bd
00000360: 7310 dfbd 9d4f 11be 7cd4 f4bc dbba e13d
00000370: e485 1ebe 74ae 4bbd c062 e6bc 1667 013e
00000380: f687 d1bd c55e 00be 59b6 5cbd cae9 36bd
00000390: 5b5f eb3b 1d6b 243e 1fde 003d 2d78 1c3e
000003a0: 5a0d f63d 3739 553d a2dd d73d 6a33 bebd
000003b0: 63c4 dfbc e7b8 debd a296 053e 6e6f 42bc
000003c0: 0671 e83d ee7b 93bc 0e7d 143e 2528 d23d
000003d0: 3c95 58bb d1fc 99bd 6626 fabd 5feb 1bbd
000003e0: 4a68 10be 25ff e7bd bdf0 0f3e 9fc7 8d3d
000003f0: 6100 06be c437 14be 65ed babd 4c89 03be

fc1.bias f4 [128]
-0.020502262 0.005860257 0.034486953 -0.13664562 0.16667809 0.14856258 0.019743862 0.1310179
-0.13296005 0.021180859 -0.11328241 0.017246911 -0.0006702414 0.047404602 -0.052714135 -0.07922882
0.10088835 -0.008162369 0.093851686 0.09786929 0.042830132 0.15746492 0.10174378 0.05687744
0.10811409 -0.08006611 -0.12611097 0.05935544 0.10610489 0.086131305 -0.09280848 0.0013747406
0.16535585 0.029371934 0.031818014 0.020010397 -0.068614446 0.051632885 -0.12803614 0.12150737
-0.010137895 -0.047846127 -0.024916368 -0.023278745 -0.006850177 -0.06343804 0.105739206 -0.1146457
-0.13911101 -0.12265947 -0.15832178 0.096695684 -0.16078638 0.12144612 -0.11285425 -0.14561386
-0.08903629 -0.13173917 -0.14199497 0.12124824 0.13270864 0.08665931 0.0922402 0.1410687
0.09074156 0.13130936 0.13242088 -0.103044614 -0.00392285 0.09086576 -0.10332105 -0.14945212
-0.0038085554 -0.05182713 0.0523815 0.109812 -0.028417643 0.10974273 -0.16231182 0.14613096
-0.04004641 -0.06629814 -0.16081797 0.13135515 -0.14203577 -0.094706155 0.025944602 0.12412011
0.14611113 0.10488793 -0.14599085 -0.10293468 0.07971702 0.024688961 -0.12244188 -0.07990624
0.15925531 -0.011460531 0.13224764 0.14348125 0.04397741 -0.053059645 -0.13135406 0.08762895
-0.07223003 0.14137599 -0.011948678 -0.105862424 -0.06767161 -0.08054168 0.1581718 -0.126671
-0.09753652 0.108885124 -0.08873185 -0.059970826 0.15720864 -0.065878406 -0.08037342 0.09705272
0.076084405 0.10383557 -0.10960337 0.018497972 -0.0066929674 0.112165116 0.026943047 0.082080394
00000000: 5cf4 a7bc 6607 c03b 3142 0d3d d4ec 0bbe
00000010: a9ad 2a3e ca20 183e e1bd a13c 8e29 063e
00000020: ae26 08be 7b83 ad3c 9c00 e8bd 6549 8d3c
00000030: 24b3 2fba 542b 423d c7ea 57bd b842 a2bd
00000040: 8d9e ce3d 75bb 05bc 5035 c03d b26f c83d
00000050: a66e 2f3d 7c3e 213e 0b5f d03d 52f8 683d
00000060: ec6a dd3d b3f9 a3bd 3c23 01be b11e 733d
00000070: 854d d93d 9c65 b03d 5f12 bebd a430 b43a
00000080: 0b53 293e 699d f03c 9b53 023d d8ec a33c
00000090: bb85 8cbd 017d 533d e81b 03be dbd8 f83d
000000a0: 6a19 26bc 4dfa 43bd 691d ccbc 11b3 bebc
000000b0: 7377 e0bb ceeb 81bd cc8d d83d 5dcb eabd
000000c0: 1e73 0ebe e334 fbbd 1b1f 22be 6308 c63d
000000d0: 2fa5 24be beb8 f83d 2120 e7bd cd1b 15be
000000e0: a958 b6bd a2e6 06be 2167 11be ff50 f83d
000000f0: c6e4 073e 707a b13d 6ee8 bc3d 5074 103e
00000100: b6d6 b93d f675 063e 5799 073e 0e09 d3bd
00000110: 408b 80bb d417 ba3d fd99 d3bd fa09 19be
00000120: f598 79bb af48 54bd fc8d 563d 1de5 e03d
00000130: 1ecc e8bc ccc0 e03d 1235 26be 5ba3 153e
00000140: b407 24bd 52c7 87bd 77ad 24be f781 063e
00000150: d371 11be 4df5 c1bd c689 d43c af32 fe3d
00000160: 289e 153e 7ccf d63d a07e 15be 6bcf d2bd
00000170: ad42 a33d 8140 ca3c cfc2 fabd e2a5 a3bd
00000180: d313 233e f3c4 3bbc ed6b 073e c0ec 123e
00000190: a821 343d 1255 59bd ae81 06be cf76 b33d
000001a0: 57ed 93bd dec4 103e 63c4 43bc 66ce d8bd
000001b0: 6a97 8abd 09f3 a4bd caf7 213e 0bb6 01be
000001c0: 3ac1 c7bd 2aff de3d 0bb9 b5bd f8a3 75bd
000001d0: 4dfb 203e 42eb 86bd d29a a4bd 94c3 c63d
000001e0: 24d2 9b3d bea7 d43d bb77 e0bd 0f89 973c
000001f0: ae50 dbbb d3b6 e53d aab7 dc3c c419 a83d

fc2.weight f4 [128, 128]
0.037707433 -0.06287378 -0.033310577 0.07179952 -0.008144848 0.010325955 0.036664996 0.030458523
-0.045908898 0.074765645 -0.05549795 -0.044658676 0.05959505 0.040833604 0.08556469 0.018558163
-0.05174845 -0.04665491 -0.005682654 -0.027266396 -0.017391225 0.062238622 -0.02746113 -0.021084944
-0.05942918 -0.07915218 0.010067152 0.010324404 -0.042273324 0.087839276 -0.042595275 0.036093034
-0.037642688 -0.075170815 0.0069356137 0.0426448 0.04346557 0.043297432 0.045886535 -0.06051417
-0.0776841 0.0014941195 -0.049613647 -0.015835203 0.049079414 -0.024211692 0.080507725 -0.06808548
0.06598122 -0.024897167 0.041994207 -0.067945644 0.03683574 -0.051417667 0.0069868066 -0.015196097
0.02191909 -0.018480157 -0.034741294 0.027323863 0.065478414 0.015305671 -0.036814373 0.090578414
0.09004274 0.06996492 -0.07959045 0.075381935 0.019217279 -0.027605595 0.07153667 -0.032593228
0.06627441 0.047605775 0.012326966 -0.05688372 0.029016575 -0.076329485 0.017946946 -0.085452616
-0.028315851 -0.033415448 -0.068406686 -0.026133824 -0.07630923 -0.0065634064 0.011365847 0.081258655
-0.052730195 0.06940496 -0.0074770246 0.00063605333 0.051292572 0.066719 0.07630142 -0.085474215
-0.04315625 0.08834541 0.008479486 -0.013338237 -0.07369707 0.0539436 0.07529992 0.0010032321
-0.06641259 -0.022919293 -0.019157825 0.04633191 0.015705692 0.08154252 0.015587407 0.009281156
0.056511402 -0.06005306 0.079616144 0.06164527 0.02677488 0.08685551 0.04785389 0.07721084
-0.043722253 0.032070227 0.005395715 0.053244475 -0.051237676 0.082979515 -0.042973273 -0.027113367
0.034231253 0.07917776 -0.062163126 0.006768567 0.046618294 0.075906016 -0.032205865 0.008321009
0.052335892 0.052287184 -0.07150093 -0.066611834 0.040686276 0.027614094 -0.026586175 -0.055386007
-0.050828133 0.02487691 0.07576425 0.024969487 0.07683531 0.0633117 -0.07050522 0.047708623
-0.030853607 0.020352952 0.07620309 0.004464083 0.031051159 0.044779237 0.023474263 0.018970946
0.032022107 0.0460675 -0.0700818 -0.06991147 -0.05945712 -0.019200563 -0.039160274 0.0102084605
-0.060861282 -0.04821777 -0.049041495 -0.008288935 -0.029558107 0.045104012 0.007824445 0.082586825
-0.059794758 -0.033190902 0.019218212 -0.035644375 -0.06440178 0.013073234 0.019618038 0.028190326
0.07687801 0.010469655 -0.08825318 -0.047752384 0.08561292 -0.086159 -0.08635114 0.065121725
0.040059455 -0.002683629 -0.028368197 -0.02360537 0.010702453 0.035194803 0.024379093 -0.010888236
-0.05873583 0.010209746 0.07016958 -0.023368033 0.017973214 -0.07444266 -0.050075043 -0.030196378
0.024293123 0.08830642 0.01562456 0.027756836 0.06533596 0.044712584 -0.08055241 -0.0072801136
-0.050952222 0.07729667 0.08031769 -0.043143995 -0.06308631 -0.0067191916 -0.049217407 0.036916967
-0.067576475 -0.072302155 0.013348958 -0.014189124 -0.06230064 0.035603333 -0.019845579 -0.08749355
-0.041891128 -0.007902037 -0.006483159 -0.0029336994 -0.015821397 -0.026622979 -0.08524385 -0.06878971
-0.034066744 0.058575083 -0.028245496 -0.056109175 -0.026737398 0.06872059 -0.020363394 0.007732428
0.084048904 0.069990225 -0.025112944 0.05857824 0.07050586 0.006154998 -0.08175926 -0.05862925
00000000: 1c73 1a3d f8c3 80bd ac70 08bd a00b 933d
00000010: f871 05bc 322e 293c 092e 163d 2784 f93c
00000020: f80a 3cbd bb1e 993d d251 63bd 04ec 36bd
00000030: f019 743d 2341 273d 8a3c af3d 4a07 983c
00000040: 2ff6 53bd 3819 3fbd 8f35 babb c75d dfbc
00000050: 0b78 8ebc eded 7e3d 2af6 e0bc 55ba acbc
00000060: 036c 73bd 8a1a a2bd b2f0 243c b027 293c
00000070: cb26 2dbd 14e5 b33d 6278 2ebd 4ad6 133d
00000080: 382f 1abd 28f3 99bd 2544 e33b 50ac 2e3d
00000090: f408 323d a658 313d 85f3 3b3d b5dd 77bd
000000a0: d718 9fbd 55d6 c33a ae37 4bbd d4b8 81bc
000000b0: 7f07 493d 9957 c6bc 3ce1 a43d 6670 8bbd
000000c0: 2921 873d 25f5 cbbc 1e02 2c3d 1627 8bbd
000000d0: 13e1 163d 559b 52bd 95f1 e43b 0df9 78bc
000000e0: aa8f b33c b363 97bc e34c 0ebd 4bd6 df3c
000000f0: 8c19 863d a3c4 7a3c abca 16bd 2d81 b93d
00000100: 5468 b83d c549 8f3d 5100 a3bd d861 9a3d
00000110: 8e6d 9d3c 2125 e2bc d181 923d 7a80 05bd
00000120: e1ba 873d 46fe 423d 0bf7 493c e7fe 68bd
00000130: 2bb4 ed3c a252 9cbd 7905 933c c801 afbd
00000140: a5f6 e7bc a3de 08bd ce18 8cbd 9a16 d6bc
00000150: 0348 9cbd d811 d7bb d137 3a3c f06a a63d
00000160: 9efb 57bd 3024 8e3d d401 f5bb d1bc 263a
00000170: 2918 523d f9a3 883d eb43 9c3d 1b0d afbd
00000180: 9cc4 30bd 70ee b43d 8bed 0a3c 9f88 5abc
00000190: 7dee 96bd f7f3 5c3d d836 9a3d e27e 833a
000001a0: 5303 88bd 3ec1 bbbc dff0 9cbc 87c6 3d3d
000001b0: 39a9 803c c4ff a63d 5362 7f3c fd0f 183c
000001c0: 8078 673d 33fa 75bd ca0d a33d c07f 7c3d
000001d0: fe56 db3c 4de1 b13d 7102 443d b820 9e3d
000001e0: 1b16 33bd 125c 033d 8ace b03b e116 5a3d
000001f0: 99de 51bd 2af1 a93d be04 30bd da1c debc
00000200: 1236 0c3d f327 a23d c39e 7ebd dbca dd3b
00000210: d3f2 3e3d 9d74 9b3d 4cea 03bd d754 083c
00000220: 295e 563d 162b 563d 146f 92bd c96b 88bd
00000230: a7a6 263d f436 e23c 40cb d9bc 70dc 62bd
00000240: 2931 50bd a9ca cb3c 492a 9b3d cf8c cc3c
00000250: d55b 9d3d 91a9 813d 0a65 90bd 1e6a 433d
00000260: b4c0 fcbc 3cbb a63c 5e10 9c3d 7147 923b
00000270: 005f fe3c 6f6a 373d 194d c03c f568 9b3c
00000280: 9d29 033d 46b1 3c3d 0c87 8fbd bf2d 8fbd
00000290: 4f89 73bd 804a 9dbc 8666 20bd 6341 273c
000002a0: ae49 79bd ff7f 45bd bcdf 48bd 50ce 07bc
000002b0: d823 f2bc fcbe 383d 1a32 003c 4823 a93d
000002c0: 59eb 74bd 2ff3 07bd 836f 9d3c d6ff 11bd
000002d0: 15e5 83bd 1e31 563c 02b6 a03c 66ef e63c
000002e0: 3872 9d3d ea88 2b3c 15be b4bd 0198 43bd
000002f0: d455 af3d 2174 b0bd ded8 b0bd 8a5e 853d
00000300: 6215 243d d3df 2fbb 6c64 e8bc 0d60 c1bc
00000310: 5759 2f3c 6d28 103d aab6 c73c 9264 32bc
00000320: fb94 70bd c746 273c 12b5 8f3d 516e bfbc
00000330: 903c 933c 6575 98bd 7d1b 4dbd 655e f7bc
00000340: 5f02 c73c ffd9 b43d 28fe 7f3c 4e62 e33c
00000350: dcce 853d 8b24 373d a9f8 a4bd 058e eebb
00000360: 47b3 50bd b74d 9e3d 9a7d a43d c2b7 30bd
00000370: 6533 81bd aa2c dcbb 3198 49bd 3f36 173d
00000380: 8965 8abd 2713 94bd 97b5 5a3c 8079 68bc
00000390: f52e 7fbd cdd4 113d 3293 a2bc d12f b3bd
000003a0: 0896 2bbd 8c77 01bc ae70 d4bb 4f43 40bb
000003b0: e09b 81bc 6f18 dabc 5494 aebd 9fe1 8cbd
000003c0: 9289 0bbd 6dec 6f3d 1963 e7bc bcd2 65bd
000003d0: 6308 dbbc 61bd 8c3d 22d1 a6bc 4f60 fd3b
000003e0: d521 ac3d 0957 8f3d a9b9 cdbc bdef 6f3d
000003f0: 6065 903d deaf c93b 6671 a7bd 3925 70bd

fc2.bias f4 [128]
0.029510418 0.08336259 -0.037763286 -0.04916469 -0.03476342 -0.009187146 0.03786089 0.063214086
-0.06434292 -0.06640855 -0.053089067 -0.07432429 0.0808449 -0.018032685 0.004865401 0.024834655
-0.0029794509 -0.03166474 0.069304384 -0.034782443 -0.014477191 0.018577814 0.03720655 0.02963991
0.08132457 0.0481286 -0.038912207 0.003222766 0.07931186 -0.05818662 0.0057264348 0.04851483
0.07731376 -0.06954062 -0.06660549 -0.029392986 0.055994425 -0.06455583 -0.0561601 -0.025976492
0.077653624 -0.019390855 -0.03325911 -0.04349083 0.07837914 0.031635158 -0.0161189 0.027163401
0.067302026 -0.04067126 0.04736017 -0.08165048 0.078359045 0.03574052 0.03542034 0.018381152
-0.07046533 -0.011077399 0.0038332888 -0.017229145 -0.0016478065 0.016309725 0.024878928 0.020364182
-0.0023396914 0.043531064 -0.023079105 -0.089642115 -0.024409011 0.0071711647 0.03123711 0.002632505
0.051520485 -0.009113585 0.016123394 0.06277693 -0.03924045 -0.039051827 -0.052108698 0.08980298
0.007746102 0.023119159 -0.041904964 0.077990755 0.08194197 -0.05705524 -0.029958632 0.028399024
0.0036487177 0.045400184 -0.06316065 -0.07353235 0.026114935 -0.029829351 -0.015565092 0.008578267
0.07958135 0.019322257 0.00017186144 -0.068538554 -0.051830538 0.04910411 0.016657 0.08018023
-0.067003354 -0.06361959 -0.046595987 -0.038449243 0.049229674 -0.032619897 -0.02728604 -0.06955663
-0.038406964 0.08210551 -0.07065709 0.06010346 -0.034061972 0.06140224 -0.05007876 0.0002636918
0.049398392 -0.08343836 -0.014239835 -0.08828337 0.010827042 0.06861899 -0.038973764 0.039673477
00000000: d5bf f13c 01ba aa3d adad 1abd ea60 49bd
00000010: 1664 0ebd af85 16bc 0514 1b3d 6376 813d
00000020: 39c6 83bd 3501 88bd ec73 59bd 5537 98bd
00000030: 0392 a53d 48b9 93bc f16d 9f3b 0c72 cb3c
00000040: e442 43bb e3b2 01bd 75ef 8d3d 0978 0ebd
00000050: bd31 6dbc 8030 983c e565 183d 66cf f23c
00000060: 7f8d a63d 7f22 453d 6862 1fbd 0b35 533b
00000070: 426e a23d 1855 6ebd d1a4 bb3b 7db7 463d
00000080: ad56 9e3d 506b 8ebd 7668 88bd 8fc9 f0bc
00000090: 695a 653d d935 84bd 2208 66bd a7cc d4bc
000000a0: dd08 9f3d 92d9 9ebc b43a 08bd 7123 32bd
000000b0: 3e85 a03d de93 013d c90b 84bc c885 de3c
000000c0: a5d5 893d e896 26bd bdfc 413d 5e38 a7bd
000000d0: b57a a03d a764 123d eb14 113d 1294 963c
000000e0: 2050 90bd fb7d 35bc ea37 7b3b 2324 8dbc
000000f0: 36fb d7ba f99b 853c e5ce cb3c c9d2 a63c
00000100: 8255 19bb a14d 323d 6410 bdbc 4996 b7bd
00000110: 68f5 c7bc 17fc ea3b f8e4 ff3c 1b86 2c3b
00000120: 2507 533d 2551 15bc 3515 843c 3191 803d
00000130: 98ba 20bd cff4 1fbd ee6f 55bd a0ea b73d
00000140: 03d3 fd3b 6464 bd3c 8aa4 2bbd 9eb9 9f3d
00000150: 31d1 a73d c1b2 69bd ce6b f5bc 12a5 e83c
00000160: 531f 6f3b 8bf5 393d 5f5a 81bd 2198 96bd
00000170: fdee d53c af5c f4bc ba04 7fbc dc8b 0c3c
00000180: 8cfb a23d b649 9e3c b435 3439 f15d 8cbd
00000190: 424c 54bd 6421 493d 4374 883c 8835 a43d
000001a0: 0e39 89bd fd4a 82bd 6fdb 3ebd f47c 1dbd
000001b0: 0ea5 493d 719c 05bd f986 dfbc b573 8ebd
000001c0: 9f50 1dbd ef26 a83d aab4 90bd 0c2f 763d
000001d0: 9184 0bbd ea80 7b3d 631f 4dbd 1d40 8a39
000001e0: f855 4a3d bbe1 aabd 324e 69bc e9cd b4bd
000001f0: e863 313c 1d88 8c3d f4a2 1fbd a880 223d

output.weight f4 [1, 128]
0.025173765 -0.078348726 -0.017871954 -0.02903152 -0.064834766 0.005173922 -0.04434323 -0.07560445
0.00092991686 0.08657389 -0.0055513694 0.06147484 0.07987118 0.07959813 0.04165463 0.046573352
0.06072707 -0.07495869 0.007701481 -0.038050737 0.08877988 0.055777438 -0.028112099 -0.035528917
0.058822412 0.042706575 -0.03416933 0.058011483 -0.02660616 0.056851935 -0.08468371 -0.0018948579
0.036300465 0.021440322 -0.046231844 -0.06641453 0.03779104 0.0064374986 0.06771101 0.07356019
-0.03011683 -0.047282204 -0.03785838 -0.03323193 -0.072972216 0.0019055116 0.05399587 0.008762731
0.0691292 -0.03189772 -0.043487556 -0.013671661 0.00475953 -0.0099921655 0.00853014 -0.022305332
0.025335582 0.06017322 0.013203181 -0.059359923 -0.051321104 -0.056754615 0.08219493 -0.013470265
-0.01838272 -0.062484067 -0.032833084 -0.02722834 -0.056699242 -0.07794273 -0.05788872 0.041473042
0.068677895 0.057825413 0.07826959 -0.031103741 0.077484176 -0.0032976102 0.0437392 0.052346516
0.07191455 -0.010642566 -0.07067255 -0.06518319 0.0057009584 -0.04809315 0.05262801 0.07659082
-0.06521878 0.04240877 0.00490233 0.05092665 -0.049889814 0.06196106 -0.004898363 -0.026303465
-0.012881567 0.07578672 -0.052496288 -0.024809867 0.085925356 0.058980074 0.020248683 0.059147876
0.006010633 0.074548855 -0.050635554 0.02295658 -0.012427755 0.03564842 0.016606096 0.042499777
0.0053156917 -0.020490287 0.051964276 0.015080218 0.06398243 0.00031339147 0.017708777 -0.01999256
0.026796162 0.013630033 -0.016501557 -0.0098838555 0.040502362 0.019194277 0.03582842 0.03425253
00000000: 3639 ce3c 4c75 a0bd 3468 92bc 83d3 edbc
00000010: 17c8 84bd 018a a93b 3fa1 35bd 82d6 9abd
00000020: aac5 733a a74d b13d 43e8 b5bb 0bcd 7b3d
00000030: 8093 a33d 5804 a33d 0c9e 2a3d b3c3 3e3d
00000040: f3bc 783d f183 99bd b55c fc3b 17db 1bbd
00000050: 3ad2 b53d e276 643d 584b e6bc c586 11bd
00000060: c5ef 703d 17ed 2e3d 24f5 0bbd 739d 6d3d
00000070: 29f5 d9bc 93dd 683d a76e adbd e15c f8ba
00000080: ccaf 143d 9da3 af3c 9a5d 3dbd 5704 88bd
00000090: c7ca 1a3d a7f1 d23b 12ac 8a3d baa6 963d
000000a0: 92b7 f6bc fcaa 41bd 6311 1bbd 341e 08bd
000000b0: 7572 95bd 5cc2 f93a c62a 5d3d 8f91 0f3c
000000c0: 9c93 8d3d 2fa7 02bd 0220 32bd 1aff 5fbc
000000d0: d5f5 9b3b 2eb6 23bc 00c2 0b3c acb9 b6bc
000000e0: 918c cf3c 3278 763d 2852 583c 6423 73bd
000000f0: 1436 52bd 8777 68bd d155 a83d 63b2 5cbc
00000100: 5c97 96bc 4bef 7fbd fc7b 06bd f80d dfbc
00000110: 773d 68bd 70a0 9fbd b91c 6dbd a3df 293d
00000120: ffa6 8c3d 57da 6c3d cf4b a03d 46cd febc
00000130: 06b0 9e3d b81c 58bb e027 333d 4d69 563d
00000140: f047 933d 285e 2ebc c5bc 90bd c47e 85bd
00000150: 1bcf ba3b 53fd 44bd 7890 573d a6db 9c3d
00000160: 6c91 85bd d2b4 2d3d baa3 a03b 7798 503d
00000170: 4359 4cbd e1ca 7d3d 7282 a0bb 5d7a d7bc
00000180: 350d 53bc 1136 9b3d 5906 57bd 103e cbbc
00000190: a2f9 af3d 1795 713d 91e0 a53c 0b45 723d
000001a0: d8f4 c43b 12ad 983d 3a67 4fbd 700f bc3c
000001b0: c89d 4bbc 1404 123d 8209 883c 3f14 2e3d
000001c0: 412f ae3b 3fdb a7bc 7ed8 543d 0513 773c
000001d0: 3809 833d b14e a439 ff11 913c 70c7 a3bc
000001e0: a083 db3c 8050 5f3c 462e 87bc e5ef 21bc
000001f0: cee5 253d 513d 9d3c d2c0 123d 624c 0c3d
