weights/ngcf_model2.pth (torch, 809947 bytes, 9 tensors)

conv1.bias f4 [18]
0.0015918002 0.00024306608 0.00039723405 0.0016091989 0.0016773987 -0.0006938672 -0.00090147654 0.0006260924
-0.00017308237 0.0012702005 0.0015794236 0.0016256685 0.0011666277 0.0015169511 -0.0008439044 0.0014418242
0.0015653373 0.0015779147
00000000: f4a3 d03a 8edf 7e39 da43 d039 c1eb d23a
00000010: 29dc db3a a4e4 35ba 1151 6cba 5a20 243a
00000020: 727d 35b9 db7c a63a a904 cf3a 6214 d53a
00000030: 88e9 983a 6fd4 c63a 7739 5dba 98fb bc3a
00000040: 012c cd3a 08d2 ce3a

conv1.lin.weight f4 [18, 9993]
-0.021836212 -0.010316067 -0.011317761 -0.00041064428 -0.006455101 -0.001802264 0.010779804 -0.006739311
0.024263192 -0.0153501285 -0.01326861 0.00083323073 0.008205377 -0.013744708 -0.00026792506 0.024366766
-0.021504905 0.007379451 -0.007827479 0.009963713 -0.017702017 -0.007278322 0.004894082 -0.01378716
-0.012327918 -0.004485098 0.010540759 -0.0153874345 -0.0072552282 0.012815795 0.019408831 -0.015686953
-0.019204266 0.0053101517 -0.024271332 -0.015863623 0.0064725038 -0.0008029376 -0.017314628 -0.01886895
-0.0244074 0.005914952 0.019003402 0.0057798764 0.003351341 -0.0048737056 -0.01820207 -0.01336329
-0.022739429 -0.021632573 -0.0026338866 0.016372388 0.021345556 0.0016581906 -0.0014674665 -0.0035180233
-0.0021204618 -0.011577459 0.00882087 -0.014479113 0.0077651073 0.014427565 -0.014542976 0.022159899
0.017018015 -0.01931185 0.0026205203 -0.0022872987 -0.00037133615 -0.014779027 -0.012016018 -0.021435346
-0.0011342447 -0.0034050283 0.022710785 0.011987312 0.023581298 0.02162784 -0.023765462 -0.0009963964
0.018270977 -0.006938936 0.0005313966 0.008895628 -0.010425266 0.0013722123 -0.008928861 -0.01732604
-0.0100028515 -0.013640109 0.0060148644 0.006249324 -0.013051145 -0.0064852107 0.0068434225 -0.015958518
-0.010262897 0.023129134 0.018338786 -0.015539557 0.018826582 0.011478527 -0.00045944017 0.021995753
0.0012895599 0.0018529219 -0.016896812 0.02301621 0.005705594 -0.01531802 -0.004953081 -0.022446848
-0.0030502423 0.022858111 -0.0020180575 0.0079004755 -0.014323888 0.0043744817 -0.009801054 -0.013956991
-0.010741009 0.01673414 -0.02141108 0.020450305 -0.009328438 0.016490843 0.019711917 0.009260573
-0.009027724 -0.0235644 -0.00067772006 -0.014948166 -0.010137163 0.011139235 0.02262073 0.021743916
0.0073759137 0.01707266 0.013423006 0.02205162 -0.0013293641 0.008530792 0.0133679295 0.0012118658
-0.005980608 -0.0053729066 0.00902335 0.022179002 0.022606049 0.010424875 -0.019692957 -0.023552306
0.0054339888 -0.015434018 -0.014041978 0.015033956 -0.01807646 -0.016124262 0.014379671 -0.02067077
-0.0074211517 -0.002563042 0.002004166 0.010185092 -0.021207372 0.016970336 0.010919076 0.00554448
-0.0070165778 0.004482262 0.0068049463 0.00016094765 0.018572632 -0.0219466 0.010806483 0.019298114
-0.007475309 -0.00036132307 -0.016603282 -0.011200447 0.021778762 0.002117984 -0.018841624 0.0013148976
-0.009225304 -0.015080758 -0.021780666 2.1435755e-05 0.022902623 -0.01310836 0.019853678 -0.011899622
0.015219982 -0.021219779 0.0062780264 0.011973026 -0.010203522 0.00847413 -0.0071405317 -0.014921822
-0.023239613 -0.017071733 -0.018883491 -0.004963088 0.012119026 -0.020148903 -0.000119459466 0.016458806
0.0001785632 -0.021647863 -0.0020370213 -0.0037399337 -0.007105374 -0.0125199 0.014200144 0.011802702
0.011208828 0.004566435 0.016378278 0.01390279 0.0029262681 0.01721072 0.00019786852 0.019192409
-0.019555762 -0.009522477 0.007837271 -0.013245809 -0.019699588 0.022953594 0.020822667 -0.012510736
-0.00039326222 0.0033813452 -0.011357761 -0.00013243181 -0.0059578675 -0.011948996 0.009139988 -0.023484847
0.023112308 -0.019570896 0.007670904 -0.0022114287 0.01012665 0.011131665 0.011060809 -0.0014641832
0.022236373 0.010482554 0.013310177 -0.0074025528 0.009675423 -0.022844203 0.01740637 0.01921974
00000000: dbe1 b2bc b904 29bc 216e 39bc be4b d7b9
00000010: 5085 d3bb f239 ecba c69d 303c 70d5 dcbb
00000020: 9ac3 c63c 1b7f 7bbc 9664 59bc 2b6d 5a3a
00000030: d86f 063c 7c31 61bc 4b78 8cb9 d09c c73c
00000040: 0e2b b0bc 52cf f13b d43e 00bc d73e 233c
00000050: d203 91bc fd7e eebb 895e a03b 8ae3 61bc
00000060: 09fb 49bc bbf7 92bb 26b3 2c3c 941b 7cbc
00000070: 44bd edbb 57f9 513c 45ff 9e3c ed81 80bc
00000080: 4452 9dbc c800 ae3b acd4 c6bc 6ef4 81bc
00000090: 4c17 d43b 3b7c 52ba 68d7 8dbc 0e93 9abc
000000a0: 07f2 c7bc 37d2 c13b 06ad 9b3c 1e65 bd3b
000000b0: 2ca2 5b3b 9bb3 9fbb 821c 95bc b3f1 5abc
000000c0: 0a48 babc cb36 b1bc 499d 2cbb 631f 863c
000000d0: e0dc ae3c a557 d93a 0158 c0ba a38e 66bb
000000e0: 72f7 0abb 62af 3dbc 6985 103c cd39 6dbc
000000f0: 7172 fe3b 9861 6c3c aa45 6ebc ad88 b53c
00000100: 5d69 8b3c e333 9ebc 09bd 2b3b 81e6 15bb
00000110: e5af c2b9 bb23 72bc d5de 44bc 2e99 afbc
00000120: f0aa 94ba e526 5fbb f80b ba3c 6e66 443c
00000130: 912d c13c de2c b13c c9af c2bc 8499 82ba
00000140: 04ad 953c 0460 e3bb 6c4d 0b3a f8be 113c
00000150: bcce 2abc cedb b33a 5b4a 12bc 57ef 8dbc
00000160: 00e3 23bc c47a 5fbc 5718 c53b 21c7 cc3b
00000170: 78d4 55bc e481 d4bb ca3e e03b 70bb 82bc
00000180: b625 28bc 4f79 bd3c 393b 963c a099 7ebc
00000190: 343a 9a3c 6f10 3c3c 04e1 f0b9 7030 b43c
000001a0: 7306 a93a bedd f23a 2f6b 8abc 7e8c bc3c
000001b0: fef5 ba3b 6ff8 7abc 744d a2bb 74e2 b7bc
000001c0: 93e6 47bb ef40 bb3c 6341 04bb ff70 013c
000001d0: beae 6abc d057 8f3b 9a94 20bc ddab 64bc
000001e0: 0ffb 2fbc 0916 893c 4a66 afbc 6687 a73c
000001f0: 4ed6 18bc ce17 873c e37a a13c a9b9 173c
00000200: 05e9 13bc 210a c1bc 06a9 31ba 27e9 74bc
00000210: 5816 26bc 5781 363c 1c4f b93c 4c20 b23c
00000220: a6b1 f13b f7db 8b3c 2bec 5b3c 99a5 b43c
00000230: 0f3e aeba bcc4 0b3c 2905 5b3c 78d7 9e3a
00000240: faf8 c3bb 350f b0bb acd6 133c bdb0 b53c
00000250: 5230 b93c 18cd 2a3c 2053 a1bc c4f0 c0bc
00000260: 9a0f b23b f7de 7cbc 5310 66bc fb50 763c
00000270: 1615 94bc 0717 84bc b698 6b3c bf55 a9bc
00000280: 222d f3bb b6f8 27bb 5358 033b 5fdf 263c
00000290: 15bb adbc 6005 8b3c ede5 323c 78ae b53b
000002a0: 52eb e5bb f0df 923b 07fc de3b 0ec4 2839
000002b0: a225 983c 5bc9 b3bc ad0d 313c 1417 9e3c
000002c0: 70f3 f4bb f66f bdb9 9b03 88bc 1482 37bc
000002d0: 6069 b23c e0cd 0a3b c059 9abc a458 ac3a
000002e0: bb25 17bc 4915 77bc 5e6d b2bc efd0 b337
000002f0: 489e bb3c 72c4 56bc 2ea4 a23c a2f6 42bc
00000300: 3b5d 793c 1ad5 adbc e7b7 cd3b 832a 443c
00000310: ac2c 27bc 14d7 0a3c 1ffb e9bb a87a 74bc
00000320: 0061 bebc 05da 8bbc 8db1 9abc 66a1 a2bb
00000330: e18e 463c 500f a5bc 5086 fab8 9ed4 863c
00000340: b23c 3b39 dc56 b1bc 8c7f 05bb ad19 75bb
00000350: 32d4 e8bb 4420 4dbc b9a7 683c 1f60 413c
00000360: 3ba5 373c 08a2 953b bd2b 863c 87c8 633c
00000370: a2c6 3f3b 7ffd 8c3c ed7a 4f39 6639 9d3c
00000380: 6833 a0bc 2a04 1cbc e667 003c f304 59bc
00000390: 0861 a1bc 2d09 bc3c 4c94 aa3c d4f9 4cbc
000003a0: c32e ceb9 8f99 5d3b e715 3abc 65dd 0ab9
000003b0: 373a c3bb b9c5 43bc e3bf 153c 4b63 c0bc
000003c0: 0656 bd3c 2553 a0bc 355c fb3b 9eed 10bb
000003d0: 40ea 253c 9661 363c 6538 353c d6e9 bfba
000003e0: 0e29 b63c 05bf 2b3c ee12 5a3c 1d91 f2bb
000003f0: aa85 1e3c c423 bbbc ce97 8e3c b772 9d3c

conv2.bias f4 [18]
-0.000957648 0.00156499 0.0004007197 0.0009909669 -0.0011032736 0.0013838533 0.0015895177 -0.0007599937
0.0003086244 -0.00021690626 -0.00049804006 0.00025776745 -0.0010391135 0.0011289798 0.00031901695 0.00078805094
0.00018673824 -0.00019440569
00000000: ab0a 7bba 5a20 cd3a b017 d239 55e3 813a
00000010: b89b 90ba 6962 b53a 5d57 d03a 503a 47ba
00000020: dece a139 5571 63b9 e78e 02ba f624 8739
00000030: dd32 88ba 47fa 933a bb41 a739 3495 4e3a
00000040: 2acf 4339 61d9 4bb9

conv2.lin.weight f4 [18, 18]
0.32072747 0.03920939 -0.35659003 -0.4018841 0.2144656 -0.00699601 -0.17438395 -0.099252656
0.05292506 -0.07579154 -0.07699516 0.19587588 -0.25357413 -0.27858678 0.34354597 -0.06746088
-0.39962548 0.09923918 0.3158461 0.32537985 -0.052885592 0.34117192 0.13867146 0.048571408
-0.32897222 0.39778548 0.35674822 0.054710306 0.08785884 0.32054836 0.2447806 -0.002037268
0.09105629 -0.351472 0.3663583 0.2504372 0.37687048 -0.031063458 0.2808722 -0.4006086
-0.36984345 -0.0013003007 -0.16930108 0.00405093 -0.0696174 0.3154417 -0.36707658 -0.17481202
0.3026801 -0.28858244 -0.37697318 0.33855686 0.054325573 -0.109973714 0.33563447 -0.3207389
-0.36413297 -0.18845382 0.15219042 0.101040006 0.04771852 0.13547567 -0.033681866 0.2166109
0.10650097 0.21857077 0.020310836 -0.009095831 -0.3251427 0.22392388 -0.09809151 0.34989238
0.16774748 -0.39429167 -0.29891223 0.13896109 -0.106785595 0.33362484 0.1704143 0.37855548
-0.022241289 -0.37953034 0.2110963 -0.042103186 0.31912318 0.33217242 -0.12755921 0.07967476
0.2464541 0.103657074 0.2311008 -0.3461381 0.2704168 -0.1360047 0.03571444 -0.0004326184
-0.106478244 0.34416187 -0.2855668 0.07571817 -0.119872294 0.2896157 -0.23116322 0.1192815
0.039812684 0.36692426 -0.20123994 0.13781776 -0.043117106 -0.30902874 -0.020555174 0.28062105
0.22626357 -0.15208222 0.19988734 -0.30066 0.219394 -0.1422706 0.4040187 0.043956492
0.21841826 0.14753515 -0.16698006 -0.054660827 0.33415616 0.1650577 -0.00801688 -0.352348
-0.030902516 0.2070057 -0.1579696 0.2484868 -0.037965216 0.36365157 0.17341806 -0.14704922
-0.33284578 -0.00075688073 -0.18791707 0.12991129 -0.2795648 -0.3914092 -0.311382 0.23914267
0.1496177 0.11764437 -0.25398782 0.1865823 -0.122398235 0.27703926 0.21652937 0.039638508
0.04196243 0.01005777 0.2977124 -0.2855509 -0.16906382 -0.35652167 -0.20873736 -0.17341422
-0.1102761 -0.31106663 0.34935048 0.022808563 -0.1596835 0.1707434 -0.4007106 0.11128844
-0.027798098 -0.1722736 -0.06281127 -0.29100642 -0.34447744 0.09761173 -0.38727462 -0.25589284
-0.0238645 0.17310005 -0.11112269 0.24366526 0.116343565 0.35994244 0.042326473 0.12698823
0.23019765 0.033672072 -0.0026251671 -0.27202857 -0.18057066 -0.25233865 -0.39083263 0.1803257
0.366254 0.36888823 -0.25185144 0.099123985 -0.048178185 -0.11268085 0.27199778 0.008032244
0.0680146 -0.06008485 -0.16745864 0.10555143 0.08007968 -0.23884308 -0.27590236 0.07034223
-0.34651855 -0.34218735 0.13031054 -0.34433484 -0.08401355 -0.11731769 -0.019276898 -0.32938763
0.121027425 -0.14741868 0.29440427 -0.066447854 0.29425305 0.28199038 -0.31441164 0.19525696
0.24295564 0.09365328 0.096615225 0.3385664 0.10846532 0.32230404 -0.14631905 -0.30055258
0.13838859 0.073638245 0.24489824 0.3569231 0.2816625 -0.034108657 0.27397472 -0.33687034
-0.25479576 -0.33729506 -0.36994877 0.13315327 0.3915281 0.33368185 -0.17797917 0.23504855
-0.14539638 0.33463758 -0.26972494 -0.037605304 0.03059664 0.24394482 -0.30032045 -0.23282377
00000000: 6436 a43e 069a 203d f892 b6be c1c3 cdbe
00000010: df9c 5b3e c93e e5bb b591 32be fa44 cbbd
00000020: f3c7 583d 9838 9bbd a3af 9dbd b093 483e
00000030: 78d4 81be eda2 8ebe 42e5 af3e ee28 8abd
00000040: b69b ccbe e93d cb3d 94b6 a13e 3098 a63e
00000050: 909e 58bd 16ae ae3e e4ff 0d3e d0f2 463d
00000060: 0c6f a8be 8aaa cb3e b4a7 b63e ea17 603d
00000070: 56ef b33d ea1e a43e c4a7 7a3e af83 05bb
00000080: b87b ba3d 23f4 b3be 5193 bb3e 4e39 803e
00000090: 2bf5 c03e cb78 febc 7bce 8f3e 921c cdbe
000000a0: 1f5c bdbe da6e aaba 435d 2dbe aabd 843b
000000b0: 9193 8ebd 9381 a13e 76f1 bbbe ec01 33be
000000c0: e3f8 9a3e 14c1 93be a102 c1be 5357 ad3e
000000d0: 7e84 5e3d e639 e1bd 48d8 ab3e e437 a4be
000000e0: a36f babe 0afa 40be ced7 1b3e 10ee ce3d
000000f0: 7f74 433d 22ba 0a3e fff5 09bd 3fcf 5d3e
00000100: 2e1d da3d 04d1 5f3e e962 a63c ae06 15bc
00000110: 1b79 a6be 4d4c 653e 34e4 c8bd 1825 b33e
00000120: ffc5 2b3e 99e0 c9be 060b 99be d14b 0e3e
00000130: 68b2 dabd e0d0 aa3e 1681 2e3e 06d2 c13e
00000140: 5d33 b6bc cd51 c2be a129 583e 6474 2cbd
00000150: 1d64 a33e 8112 aa3e e29e 02be 852c a33d
00000160: 775e 7c3e 294a d43d b0a5 6c3e 0339 b1be
00000170: 1274 8a3e d144 0bbe 4e49 123d 0fd1 e2b9
00000180: 4411 dabd fc35 b03e d035 92be 2112 9b3d
00000190: 9b7f f5bd 8248 943e 0db6 6cbe dc49 f43d
000001a0: a012 233d 7fdd bb3e d811 4ebe 1920 0d3e
000001b0: 909b 30bd 0439 9ebe 5363 a8bc 90ad 8f3e
000001c0: a3b1 673e 71bb 1bbe 44af 4c3e 1cf0 99be
000001d0: d2a8 603e 62af 11be 8adb ce3e b90b 343d
000001e0: 09a9 5f3e 7413 173e d2fc 2abe 08e4 5fbd
000001f0: 8416 ab3e e304 293e 3b59 03bc f566 b4be
00000200: 4627 fdbc 4df9 533e c8c2 21be 5373 7e3e
00000210: 6a81 1bbd 8a30 ba3e 8194 313e 1294 16be
00000220: c36a aabe 6869 46ba 556d 40be 7707 053e
00000230: 1e23 8fbe c966 c8be 766d 9fbe d1e1 743e
00000240: 6235 193e 88ef f03d b10a 82be 6e0f 3f3e
00000250: edab fabd 17d8 8d3e e0b9 5d3e fd5b 223d
00000260: cce0 2b3d 58c9 243c c26d 983e ba33 92be
00000270: 111f 2dbe 028a b6be 3fbf 55be 7f93 31be
00000280: 70d8 e1bd 2044 9fbe 11de b23e 06d9 ba3c
00000290: 1284 23be 5cd7 2e3e f129 cdbe 32eb e33d
000002a0: d6b8 e3bc 7e68 30be 32a3 80bd cbfe 94be
000002b0: 595f b0be a9e8 c73d dc48 c6be 6304 83be
000002c0: 7c7f c3bc 2441 313e 4b94 e3bd 6383 793e
000002d0: 8945 ee3d 604a b83e 865e 2d3d 3409 023e
000002e0: efb8 6b3e baeb 093d ff0a 2cbb 5447 8bbe
000002f0: 84e7 38be 8832 81be 371b c8be 4da7 383e
00000300: a585 bb3e ebde bc3e acf2 80be 8401 cb3d
00000310: 7d56 45bd 38c5 e6bd 4b43 8b3e ac99 033c
00000320: 3d4b 8b3d 881b 76bd 477a 2bbe 592b d83d
00000330: d100 a43d 4893 74be 1343 8dbe 960f 903d
00000340: e16a b1be 2e33 afbe 2070 053e a84c b0be
00000350: 4c0f acbd 4244 f0bd 96ea 9dbc 7fa5 a8be
00000360: 3add f73d ecf4 16be 28bc 963e d015 88bd
00000370: 56a8 963e 0b61 903e 90fa a0be 71f1 473e
00000380: 5dc9 783e 4acd bf3d 34de c53d 9358 ad3e
00000390: 1123 de3d 0905 a53e a9d4 15be 07e2 99be
000003a0: bdb5 0d3e a6cf 963d 9bc6 7a3e a0be b63e
000003b0: 1136 903e 85b5 0bbd 6a46 8c3e 457a acbe
000003c0: 9774 82be f0b1 acbe ed69 bdbe 5559 083e
000003d0: 5f76 c83e 59d8 aa3e 2c40 36be 91b0 703e
000003e0: cae2 14be 9e55 ab3e 6319 8abe 0508 1abd
000003f0: cea5 fa3c accc 793e 9ac3 99be 5b69 6ebe

fc1.weight f4 [128, 36]
0.068171605 0.04522767 -0.0859175 -0.07750336 -0.15396553 0.0812299 0.12726444 -0.027234068
-0.122910336 -0.038732894 -0.06339612 -0.09971961 -0.11723209 -0.018618768 -0.14655192 0.0036805912
0.07736801 -0.11283796 0.09105645 0.14224128 0.028327605 0.010810104 -0.054300502 0.021889955
0.0717428 -0.12697744 0.096951805 -0.085246526 0.08566695 0.0572534 -0.092351645 -0.082705766
0.10443982 0.07566127 0.011123776 0.13782829 -0.13408357 -0.13104862 -0.10085734 0.14413324
0.009953979 -0.007303398 -0.039928824 -0.1613743 0.15245786 0.1343604 0.026244374 -0.037883874
-0.11763339 0.043175265 0.03264947 0.15484652 -0.14161249 0.010218986 -0.12558487 0.16074243
0.09635725 0.077328384 -0.09030067 -0.13910748 -0.013943544 -0.06461662 0.07567245 -0.12925671
-0.030225523 0.049476247 -0.09014485 0.03467279 -0.023847228 0.16359816 -0.06123551 0.09308364
0.03288193 0.16289203 -0.086511016 -0.042134676 -0.1416044 0.002456563 0.07257631 0.08291141
-0.023788115 0.12242098 -0.044564586 0.14491694 -0.15668198 0.027185567 0.08433528 -0.119701
0.12790442 0.093392655 -0.07883199 -0.1564258 0.056717854 0.10254276 0.10449277 0.12578604
-0.15275964 0.15571778 -0.096903026 0.13516662 -0.101098254 -0.056296688 0.05121034 -0.011854765
-0.13773538 -0.08755065 -0.01742689 -0.08247926 0.03229395 0.1050732 -0.10360833 0.124371156
-0.13532038 0.004702982 0.048082344 0.14227055 -0.069208436 -0.0036324272 0.15082072 -0.09792092
0.1273164 0.13024896 0.015462529 0.029410059 -0.13838863 -0.12010547 0.09578824 -0.060694538
-0.16025977 0.124296084 -0.08240507 -0.14350045 -0.11225903 -0.09279907 -0.037711583 0.13262588
0.12581046 0.10986374 0.01230166 0.11105392 0.06484136 -0.015031985 -0.07446736 0.10949777
-0.05110542 -0.06925982 -0.16695975 0.02763579 -0.13596462 -0.14775032 0.16004585 -0.08699158
-0.016272834 -0.015993632 -0.090054765 -0.024315694 0.086389944 0.09820429 -0.111492775 -0.11643163
-0.042609304 0.05987579 0.0009040038 0.15131904 0.14693743 0.08711818 -0.123245955 -0.03247082
0.0249235 -0.02862974 0.0786077 -0.11297914 -0.117974915 -0.010778129 -0.09501097 -0.0897522
0.12325944 -0.1322631 -0.121963345 -0.12873475 -0.13190399 -0.09781514 0.133354 -0.10386377
0.11640455 -0.101476215 -0.09453344 -0.021507772 -0.04782609 -0.036189888 0.046222016 -0.026692329
0.061736297 0.024844872 0.038211215 0.06490718 0.09226648 -0.12126232 -0.12307501 0.0025091595
-0.0022311807 0.15394022 0.1439505 0.14745228 -0.09770273 -0.0042410097 0.16128872 -0.104979336
-0.13749392 -0.105808556 0.017975057 0.07921374 -0.033847272 0.13910684 0.15452498 0.123145685
-0.14645223 0.008367519 -0.061904978 0.16420698 -0.04995915 0.016288616 0.007497653 -0.0026154912
0.10414786 0.07890771 0.08517708 -0.004376834 0.16118206 -0.11716203 0.094232865 0.15598507
0.019511735 -0.058263507 0.054594796 0.0697923 0.037153404 -0.16516723 0.08103956 -0.13251588
0.15044338 -0.10655475 -0.067547485 0.080763444 -0.062035255 0.024727225 -0.011078577 -0.07944779
0.07476392 0.04768196 0.094942376 0.058992326 -0.017201195 0.10617725 -0.059396308 0.050800823
00000000: 8e9d 8b3d a640 393d 84f5 afbd 15ba 9ebd
00000010: 24a9 1dbe dd5b a63d 9c51 023e fb19 dfbc
00000020: 6ab8 fbbd 62a6 1ebd d3d5 81bd cb39 ccbd
00000030: 6117 f0bd 6386 98bc b511 16be 1336 713b
00000040: 1f73 9e3d 9717 e7bd ce7b ba3d b3a7 113e
00000050: 4b0f e83c dd1c 313c 346a 5ebd 9052 b33c
00000060: e4ed 923d 6006 02be ab8e c63d bb95 aebd
00000070: 2772 af3d 8b82 6a3d dc22 bdbd a461 a9bd
00000080: 8be4 d53d 4cf4 9a3d 8040 363c dc22 0d3e
00000090: 344d 09be 9c31 06be 4b8e cebd aa97 133e
000000a0: 0416 233c 5851 efbb 688c 23bd 4e3f 25be
000000b0: ea1d 1c3e c695 093e 71fe d63c 1f2c 1bbd
000000c0: c6e9 f0bd 8cd8 303d 73bb 053d 1690 1e3e
000000d0: dd02 11be 896d 273c 5299 00be aa99 243e
000000e0: f356 c53d 585e 9e3d 8fef b8bd 3172 0ebe
000000f0: 7673 64bc b855 84bd 28fa 9a3d df5b 04be
00000100: 849b f7bc 9ba7 4a3d dd9d b8bd 0e05 0e3d
00000110: 435b c3bc 4786 273e 16d2 7abd a3a2 be3d
00000120: 34af 063d 2bcd 263e b02c b1bd 6995 2cbd
00000130: be00 11be 4afe 203b e3a2 943d 75cd a93d
00000140: 4bdf c2bc dab7 fa3d 5b89 36bd 1b65 143e
00000150: 3e71 20be 44b4 de3c fab7 ac3d cc25 f5bd
00000160: 60f9 023e a644 bf3d ab72 a1bd 162e 20be
00000170: fb50 683d f001 d23d 4e00 d63d 0ece 003e
00000180: 066d 1cbe 7b74 1f3e 1875 c6bd 1e69 0a3e
00000190: 9a0c cfbd 5b97 66bd efc1 513d 7d3a 42bc
000001a0: 810a 0dbe c14d b3bd d6c2 8ebc e3ea a8bd
000001b0: a946 043d 9e30 d73d 9b30 d4bd 4eb6 fe3d
000001c0: 6d91 0abe 791b 9a3b fef1 443d 5faf 113e
000001d0: 27bd 8dbd 040e 6ebb bf70 1a3e c38a c8bd
000001e0: 3b5f 023e fc5f 053e 8c56 7d3c 5ded f03c
000001f0: c0b5 0dbe dbf9 f5bd a02c c43d d69a 78bd
00000200: 231b 24be f28e fe3d fdc3 a8bd c8f1 12be
00000210: 10e8 e5bd 700d bebd 7677 1abd 14cf 073e
00000220: 75d4 003e 3e00 e13d e78c 493c 3d70 e33d
00000230: 8ccb 843d b748 76bc 5882 98bd 5e40 e03d
00000240: eb53 51bd 18d8 8dbd 7ff7 2abe 7464 e23c
00000250: 4f3a 0bbe dc4b 17be 0fe3 233e a428 b2bd
00000260: 9b4e 85bc 1405 83bc a26e b8bd b531 c7bc
00000270: 36ed b03d 551f c93d 5356 e4bd b573 eebd
00000280: 1887 2ebd 5140 753d abfa 6c3a 61f3 1a3e
00000290: c476 163e 046b b23d 6068 fcbd 1f00 05bd
000002a0: 5e2c cc3c eb88 eabc 13fd a03d 9b61 e7bd
000002b0: d59c f1bd c096 30bc 1d95 c2bd 00d0 b7bd
000002c0: 726f fc3d fa6f 07be ebc7 f9bd 0bd3 03be
000002d0: d711 07be 4e53 c8bd f38d 083e 87b6 d4bd
000002e0: 8265 ee3d c3d2 cfbd c09a c1bd 1131 b0bc
000002f0: 4ae5 43bd d93b 14bd 4c53 3d3d dfa9 dabc
00000300: 33df 7c3d 7987 cb3c 5d83 1c3d 0eee 843d
00000310: 35f6 bc3d 6158 f8bd c00e fcbd b670 243b
00000320: 0039 12bb 81a2 1d3e c367 133e bbfd 163e
00000330: 5e18 c8bd 2bf8 8abb df28 253e 68ff d6bd
00000340: 35cb 0cbe 28b2 d8bd 6d40 933c d03a a23d
00000350: 70a3 0abd 0672 0e3e cc3b 1e3e ce33 fc3d
00000360: 93f7 15be eb17 093c 1390 7dbd e025 283e
00000370: f7a1 4cbd b46f 853c dfae f53b a968 2bbb
00000380: 794b d53d 5e9a a13d 5271 ae3d 8b6b 8fbb
00000390: e90c 253e a5f2 efbd 29fd c03d 8dba 1f3e
000003a0: 13d7 9f3c b7a5 6ebd cb9e 5f3d 44ef 8e3d
000003b0: 2b2e 183d 9921 29be 12f8 a53d 3eb2 07be
000003c0: d40d 1a3e 6039 dabd 5656 8abd 4e67 a53d
000003d0: ae18 7ebd c090 ca3c eb82 35bc 86b5 a2bd
000003e0: d31d 993d 294e 433d 2671 c23d f0a1 713d
000003f0: 85e9 8cbc 7573 d93d 8b49 73bd 8614 503d

fc1.bias f4 [128]
-0.06991984 0.10509307 -0.0053229467 0.022373846 -0.103244804 -0.040887687 0.13765502 0.13073081
0.05301368 -0.062171675 0.095455445 -0.09485464 0.11286558 -0.02364274 -0.118741505 0.11622416
0.0935013 0.050016746 0.026710892 0.01016235 0.12851176 -0.12639664 -0.115900844 0.16595528
-0.10857478 0.070994616 0.02631523 -0.15052235 0.15893613 0.1524655 -0.116179675 -0.09897941
0.085615456 0.019867143 0.106572464 -0.004658766 0.10526306 0.09480089 -0.16586335 -0.14855854
-0.07467073 0.123069234 -0.058357205 0.1462238 0.13166906 0.030639352 -0.099612966 0.09960958
0.07147318 -0.12567486 0.057146996 0.16025187 -0.027418198 0.14573903 -0.023800643 0.12787114
-0.1267584 0.1460965 -0.038730484 -0.06396811 0.031498957 0.06798465 -0.13176516 -0.044572033
-0.1148602 -0.077855036 0.13482021 0.0588946 0.122105144 0.14183566 0.1352995 0.14419864
-0.123547755 -0.072559364 0.017994331 0.10915658 -0.10059173 -0.0628683 0.10635604 0.13996552
0.0005619433 -0.030509755 -0.1251022 0.11184963 -0.08208571 -0.0154670905 -0.13753764 0.09874636
0.082846746 0.13881047 0.00379533 -0.1458459 -0.008114082 0.045923952 -0.0042080083 0.16455153
0.076950364 0.16018999 -0.14288807 0.052381035 0.14887048 0.08903296 0.038933303 -0.09676806
-0.0312287 0.121442534 -0.0684939 -0.033905722 0.13924699 -0.1267791 -0.03213423 -0.11886371
-0.12516332 -0.015809717 0.013267632 -0.05971326 0.067429006 -0.013274475 0.15180343 -0.13788448
0.06087561 -0.0703126 -0.13138317 -0.04099015 -0.03789499 0.13568574 -0.13280031 -0.15594427
00000000: 2232 8fbd 093b d73d 1d6c aebb 5b49 b73c
00000010: 0372 d3bd d979 27bd 70f5 0c3e 4cde 053e
00000020: df24 593d baa7 7ebd 257e c33d 2643 c2bd
00000030: 1226 e73d 6bae c1bc bf2e f3bd ef06 ee3d
00000040: 9c7d bf3d 5cde 4c3d cdd0 da3c fc7f 263c
00000050: 9698 033e 1f6e 01be 6c5d edbd 2ef0 293e
00000060: 745c debd a065 913d 0a93 d73c 8822 1abe
00000070: 27c0 223e eb1f 1c3e 9cef edbd b8b5 cabd
00000080: 2857 af3d 6bc0 a23c aa42 da3d 90a8 98bb
00000090: 2994 d73d f826 c23d 15d8 29be bb1f 18be
000000a0: f8ec 98bd b90b fc3d f707 6fbd b1bb 153e
000000b0: 41d4 063e 61ff fa3c e201 ccbd 1c00 cc3d
000000c0: 8860 923d e9b0 00be f812 6a3d 1119 243e
000000d0: 219c e0bc 9d3c 153e 91f9 c2bc a7f0 023e
000000e0: f4cc 01be 529a 153e dba3 1ebd b601 83bd
000000f0: 0d05 013d 893b 8b3d 72ed 06be 2a91 36bd
00000100: d33b ebbd 7672 9fbd 4f0e 0a3e 773b 713d
00000110: 4312 fa3d 5e3d 113e f48b 0a3e cfa8 133e
00000120: 9b06 fdbd 019a 94bd d968 933c 7c8d df3d
00000130: 0903 cebd 18c1 80bd 32d1 d93d 1f53 0f3e
00000140: 604f 133a 98ef f9bc cb1a 00be 6b11 e53d
00000150: 8d1c a8bd ae69 7dbc abd6 0cbe 883b ca3d
00000160: 8eab a93d 5524 0e3e 12bb 783b a158 15be
00000170: edf0 04bc c11a 3c3d 55e3 89bb 3280 283e
00000180: 2798 9d3d d808 243e 4051 12be 7f8d 563d
00000190: 8171 183e ea56 b63d 8778 1f3d 552e c6bd
000001a0: 55d3 ffbc ddb6 f83d 8846 8cbd bae0 0abd
000001b0: c396 0e3e 61d2 01be 2f9f 03bd d16e f3bd
000001c0: d02a 00be 6183 81bc 7b60 593c e495 74bd
000001d0: 3818 8a3d 2f7d 59bc 5c72 1b3e 9731 0dbe
000001e0: b458 793d 0d00 90bd 4f89 06be 4ae5 27bd
000001f0: c737 1bbd 34f1 0a3e cefc 07be dbaf 1fbe

fc2.weight f4 [128, 128]
0.04378892 0.013530832 0.04343794 0.036795415 0.084650114 0.004911937 0.055426996 0.0070484253
0.06557711 -0.057449058 0.04309061 -0.06251806 -0.012547576 0.06929399 -0.051718462 -0.029413898
-0.086261585 0.0077746026 -0.025611294 0.031545974 -0.018300917 -0.08311607 -0.07988885 0.010600512
-0.025876839 -0.018915774 0.08083646 0.02989173 0.010705715 0.03780394 0.045681633 0.016596733
-0.03608828 -0.009547715 0.0831262 -0.026105493 0.03449399 0.009000124 -0.050363228 -0.06237375
-0.034764312 -0.071726166 0.00070057646 0.05713759 0.044095956 -0.052240122 -0.04230615 0.0030642727
-0.034274254 -0.00919497 0.079319105 0.07414544 0.009261825 -0.06470876 0.050440405 -0.042147104
-0.08030078 0.018199194 0.08462134 -0.04882056 -0.075285226 -0.07199962 0.06609375 0.019506441
0.07380196 -0.07693591 -0.019645598 0.04439633 0.060978796 0.0396433 0.0771636 0.059593074
0.00019763455 0.05996138 0.079128504 0.0505859 -0.08152717 0.04135591 -0.0220445 0.0033594654
-0.07217225 0.026420726 -0.03347273 0.078384854 0.053864118 0.044406723 -0.01967825 0.05837822
-0.06459817 0.019558255 -0.0125615895 0.00911783 -0.06345887 0.04797719 0.07872464 -0.050895512
-0.058821306 -0.07431602 -0.020281201 0.017478341 0.067508765 -0.07927037 0.054449774 0.017079491
0.07247423 0.0038434325 0.03352853 0.010757937 -0.005501092 -0.018804576 0.07853254 -0.040834878
-0.055798855 -0.06286987 0.076449566 -0.044987008 0.007363646 -0.043930482 -0.0009594949 -0.047229268
-0.05293865 -0.013745813 -0.004434765 -0.08057488 -0.07400631 0.0025450364 0.050179284 -0.06789781
-0.057764377 0.02348954 0.042621445 -0.05928763 0.07147971 -0.07204242 0.0067278254 -0.05263926
0.03718841 -0.0029968675 0.059276946 -0.03989553 0.01139687 -0.06014648 -0.07170623 0.08715848
-0.056218643 -0.03259527 0.07041402 -0.048709918 -0.05529254 -0.06420603 0.087987244 0.036142092
0.07488315 0.039742026 0.014900696 -0.08472026 -0.028696492 0.023719216 -0.009466858 0.050629396
-0.028598363 -0.030877814 0.06262282 -0.04520163 -0.08831495 -0.05012405 0.03204515 0.046011716
-0.069924176 0.030586317 0.087754205 0.08057726 0.039359104 0.0035453278 0.0051846914 0.032514617
-0.086676076 0.028491184 0.030137673 -0.0107536875 0.041353144 0.046802282 -0.077780776 0.0648148
0.026013097 0.0064572394 0.08320673 0.06456298 -0.04220815 -0.06856333 0.06187513 -0.01315793
-0.07973791 0.04227345 0.08261201 -0.023913244 0.024463506 -0.014362205 -0.045006018 -0.08410022
-0.048113123 0.06802166 0.06609791 -0.024551013 0.029247288 0.016250687 0.051767442 0.049526382
-0.077449515 0.0438933 -0.07585885 -0.022373706 0.010628301 -0.0010129615 -0.017156834 0.0679002
-0.024673313 0.042220898 -0.019970296 -0.0344889 0.071811594 -0.060649987 0.027068581 0.041332174
-0.0312428 0.060367163 0.046125587 0.051294565 0.06348246 -0.0759888 0.039173376 -0.0006478463
-0.012180381 -0.013899564 0.027619326 0.027399682 0.03276994 -0.08589664 -0.021601738 0.0026594866
0.048118077 0.084726565 -0.052742768 0.027890688 0.08442367 -0.029144054 -0.06762972 -0.005543305
-0.06443184 0.07894418 0.045091912 -0.015023271 0.08693131 0.054789767 0.023405315 -0.04120003
00000000: 035c 333d 6cb0 5d3c fbeb 313d cab6 163d
00000010: 0a5d ad3d 50f4 a03b 6b07 633d 7af6 e63b
00000020: 4b4d 863d b44f 6bbd c87f 303d 7809 80bd
00000030: 5994 4dbc 02ea 8d3d bdd6 53bd 6af5 f0bc
00000040: eaa9 b0bd 18c2 fe3b c7ce d1bc 5a36 013d
00000050: ceeb 95bc c238 aabd c49c a3bd c5ad 2d3c
00000060: aafb d3bc 41f5 9abc 968d a53d 80df f43c
00000070: 0667 2f3c 4ed8 1a3d aa1c 3b3d dff5 873c
00000080: 4ed1 13bd 056e 1cbc 123e aa3d 30db d5bc
00000090: 9249 0d3d 4275 133c ac49 4ebd 9e7b 7fbd
000000a0: 0665 0ebd 2be5 92bd e4a6 373a 1b09 6a3d
000000b0: f69d 343d bdf9 55bd 3749 2dbd f7d1 483b
000000c0: 2963 0cbd 80a6 16bc 0e72 a23d 90d9 973d
000000d0: e9be 173c 0786 84bd 999a 4e3d 71a2 2cbd
000000e0: bc74 a4bd 7a16 953c f44d ad3d 11f8 47bd
000000f0: 242f 9abd 8974 93bd 295c 873d f9cb 9f3c
00000100: 7b25 973d 9390 9dbd ceef a0bc edd8 353d
00000110: e7c4 793d 0361 223d f307 9e3d de17 743d
00000120: 1f3c 4f39 109a 753d 200e a23d 2933 4f3d
00000130: b8f7 a6bd d164 293d ab96 b4bc 7a2a 5c3b
00000140: 0bcf 93bd 4770 d83c b41a 09bd 3d88 a03d
00000150: 9fa0 5c3d d3e3 353d 4834 a1bc 001e 6f3d
00000160: 0c4c 84bd a238 a03c 20cf 4dbc f362 153c
00000170: b9f6 81bd bb83 443d 623a a13d d077 50bd
00000180: 9cee 70bd ff32 98bd c324 a6bc bd2e 8f3c
00000190: 0942 8a3d 8158 a2bd ba06 5f3d 4aea 8b3c
000001a0: 5e6d 943d 19e2 7b3b 3655 093d 0f42 303c
000001b0: 8142 b4bb 0e0c 9abc abd5 a03d 7942 27bd
000001c0: 578d 64bd ebc1 80bd 9791 9c3d 4c44 38bd
000001d0: bd4a f13b 73f0 33bd 9d86 7bba 7a73 41bd
000001e0: 33d6 58bd 1e36 61bc 8151 91bb 7104 a5bd
000001f0: 9f90 97bd a0ca 263b cb88 4d3d 020e 8bbd
00000200: 579a 6cbd 236d c03c d393 2e3d 96d7 72bd
00000210: f463 923d fa8a 93bd 1775 dc3b 449c 57bd
00000220: e052 183d 1867 44bb 62cc 723d 7f69 23bd
00000230: f0b9 3a3c 285c 76bd b7da 92bd 2580 b23d
00000240: 8545 66bd 9e82 05bd 3a35 903d 0d84 47bd
00000250: 6e7a 62bd 737e 83bd a832 b43d bb09 143d
00000260: 565c 993d 89c8 223d 0d22 743c d181 adbd
00000270: e814 ebbc cd4e c23c e11a 1bbc c560 4f3d
00000280: 1d47 eabc 78f3 fcbc 6540 803d 5825 39bd
00000290: 78de b4bd e04e 4dbd c641 033d c876 3c3d
000002a0: 6834 8fbd 2890 fa3c 7ab8 b33d b105 a53d
000002b0: 0337 213d bb58 683b 58e4 a93b 0c2e 053d
000002c0: 3a83 b1bd 5866 e93c 48e3 f63c 3c30 30bc
000002d0: ea61 293d c0b3 3f3d 874b 9fbd 9fbd 843d
000002e0: 6b19 d53c 4097 d33b 4a68 aa3d 9839 843d
000002f0: 74e2 2cbd ee6a 8cbd c770 7d3d 5c94 57bc
00000300: a14d a3bd ed26 2d3d 7c30 a93d b5e5 c3bc
00000310: b167 c83c 744f 6bbc 3b58 38bd bc3c acbd
00000320: 4412 45bd f14e 8b3d 575e 873d 351f c9bc
00000330: 0298 ef3c 2920 853c 190a 543d 2ddc 4a3d
00000340: da9d 9ebd 76c9 333d e25b 9bbd 1049 b7bc
00000350: 5322 2e3c 59c5 84ba 7d8c 8cbc 430f 8b3d
00000360: b01f cabc d2ef 2c3d bf98 a3bc 3c44 0dbd
00000370: f511 933d 1f6c 78bd eebe dd3c ed4b 293d
00000380: e7f0 ffbc 8f43 773d 2fee 3c3d 401a 523d
00000390: 1803 823d 04a0 9bbd 4374 203d 3bd4 29ba
000003a0: 3990 47bc ffba 63bc ed41 e23c 4c75 e03c
000003b0: c639 063d 94ea afbd 21f6 b0bc c84a 2e3b
000003c0: 7617 453d 1f85 ad3d cd08 58bd 037b e43c
000003d0: 51e6 ac3d 83bf eebc 7381 8abd 9da4 b5bb
000003e0: d7f4 83bd 7cad a13d 4cb2 383d 2a24 76bc
000003f0: 0b09 b23d 3c6b 603d 81bc bf3c 5dc1 28bd

fc2.bias f4 [128]
0.026454605 -0.040961504 0.07223753 -0.049390025 -0.05583982 0.036075905 0.016098097 -0.025269581
0.055710293 0.0002819479 -0.079003364 -0.058938783 -0.06033675 0.02505904 0.012495243 0.071388386
0.063474014 -0.066354804 0.060273733 -0.027569389 -0.060122825 -0.0862649 -0.047096286 0.08742557
-0.02987807 0.07215355 -0.0063445694 0.054078564 -0.020989884 -0.056623876 0.033042267 -0.032369196
0.025732893 0.007610423 0.05464866 -0.027974298 -0.050902244 -0.01632235 -0.048808295 0.07312275
0.034988426 0.026780149 -0.03474763 -0.07015642 -0.0708989 0.050618805 0.00848581 -0.0074642487
0.07349336 -0.06611719 0.0064977375 -0.062191594 0.07725761 0.0359563 0.026067995 -0.049909946
-0.037092876 0.06759389 0.0078044897 -0.032130387 -0.06827524 -0.07392173 0.06731511 -0.006523832
0.036749214 0.033518415 -0.06948178 -0.086208984 0.058283668 -0.08712355 0.024796592 0.08457562
-0.011557933 -0.073908664 -0.082991585 0.058793746 0.087722614 -0.062897235 0.007611889 0.018334294
-0.067331 0.07395766 -0.06970394 0.009204394 -0.071037985 0.0782369 0.0678615 -0.052489817
0.07187067 0.043532472 0.0578262 -0.03212466 0.08361103 0.085944474 0.013603632 -0.056109652
-0.079487465 -0.02348364 -0.08797451 0.010389057 0.077921085 0.012523309 0.002046874 -0.059928533
0.08376507 -0.0050588096 0.0072515053 0.06482675 0.07513467 -0.060452424 -0.0379329 -0.025604118
0.0016282451 0.06526118 -0.04346053 -0.021775601 0.07499657 -0.03553207 -0.06151516 0.079964116
-0.026522374 -0.061932877 -0.06727904 0.05448651 -0.08159308 0.03863723 0.04241166 0.08775754
00000000: 54b7 d83c 40c7 27bd 45f1 933d 324d 4abd
00000010: 4cb8 64bd 54c4 133d 28e0 833c 2702 cfbc
00000020: 7a30 643d 68d2 9339 84cc a1bd cb69 71bd
00000030: ab23 77bd 9e48 cd3c d9b8 4c3c 1334 923d
00000040: aafe 813d 07e5 87bd 97e1 763d 33d9 e1bc
00000050: 5a43 76bd a7ab b0bd 09e8 40bd 2d0c b33d
00000060: dbc2 f4bc 3ec5 933d 1be6 cfbb 7c81 5d3d
00000070: faf2 abbc 70ee 67bd 5457 073d 9095 04bd
00000080: cacd d23c db60 f93b 46d7 5f3d 5b2a e5bc
00000090: df7e 50bd 73b6 85bc 35eb 47bd 61c1 953d
000000a0: 0650 0f3d 0b62 db3c 8853 0ebd 2bae 8fbd
000000b0: 7133 91bd aa55 4f3d 1108 0b3c a896 f4bb
000000c0: b083 963d 7368 87bd f9ea d43b 9dbc 7ebd
000000d0: 3d39 9e3d ea46 133d 8c8c d53c 5f6e 4cbd
000000e0: b3ee 17bd aa6e 8a3d cebc ff3b 279b 03bd
000000f0: e4d3 8bbd 4764 97bd 81dc 893d dfc5 d5bb
00000100: 5886 163d 9b4a 093d 774c 8ebd 568e b0bd
00000110: dbba 6e3d d56d b2bd 3922 cb3c fc35 ad3d
00000120: 7c5d 3dbc 6d5d 97bd 7ef7 a9bd b6d1 703d
00000130: eaa7 b33d 44d0 80bd 276d f93b cd31 963c
00000140: d6e4 89bd 1d77 973d f0c0 8ebd 07ce 163c
00000150: 5d7c 91bd ab3a a03d f8fa 8a3d 90ff 56bd
00000160: ee30 933d 1b4f 323d 2adb 6c3d 2695 03bd
00000170: 423c ab3d a803 b03d c5e1 5e3c 3cd3 65bd
00000180: 53ca a2bd c360 c0bc fb2b b4bd dd36 2a3c
00000190: 1795 9f3d 912e 4d3c d924 063b 9f77 75bd
000001a0: 058d ab3d 5fc4 a5bb 099e ed3b e3c3 843d
000001b0: 35e0 993d f69c 77bd 875f 1bbd babf d1bc
000001c0: d76a d53a a7a7 853d ab03 32bd bf62 b2bc
000001d0: cd97 993d 138a 11bd 52f7 7bbd 3ac4 a33d
000001e0: 7345 d9bc 54ad 7dbd 98c9 89bd 3f2d 5f3d
000001f0: 461a a7bd 1242 1e3d d9b7 2d3d 3aba b33d

output.weight f4 [1, 128]
0.08677232 0.066536844 -0.054165225 -0.040378187 -0.012592351 0.04343956 -0.06412111 0.009243042
-0.045329284 0.04543234 0.080006965 -0.060372315 0.03684958 0.03155707 -0.07250929 0.05995213
0.06844981 -0.01073237 0.06989864 0.021250114 0.00748253 -0.035427526 -0.07998559 0.046675254
0.011564731 0.03600386 -0.02313558 0.019150443 -0.044368878 0.02756055 0.06853865 -0.023639655
0.07383601 0.08168934 0.049523402 -0.07436243 0.07937975 -0.0039047322 0.045194592 -0.027823843
-0.03767825 -0.025053304 0.03005983 -0.026674114 0.06191532 0.029171547 -0.0024410638 0.025166115
0.07027938 -0.05730926 -0.08792101 0.018264389 -0.014060346 -0.028980235 -0.015429951 -0.06342437
0.06654227 0.07269418 -0.08190988 -0.011606189 -0.03815979 0.08241256 -0.026358385 -0.03230054
0.037214078 0.021466399 -0.08795612 -0.0070971777 0.0076538688 -0.038115595 -0.08202353 -0.045552693
0.0069920267 -0.03222752 0.032561876 0.07073091 0.018333515 0.010997092 0.039938014 0.071676575
-0.057199236 0.015923595 0.0078684855 -0.06346192 0.025266794 -0.04212988 -0.07480887 -0.014956886
0.018375475 0.053794537 0.010671324 0.04789519 -0.06617456 -0.010837003 -0.0510953 -0.072462946
-0.055575084 -0.05472334 4.46912e-05 0.052806195 0.038346745 -0.025195375 0.032955967 0.074378125
-0.013041719 0.03318899 0.020965999 -0.06890801 -0.009215393 0.058766767 0.06489524 0.08859665
0.076689124 0.078519024 -0.02877032 0.007873452 -0.039591044 0.018385842 -0.009140305 0.075878695
-0.04124886 -0.03372162 0.024751883 0.008017662 -0.067274146 0.020973712 0.08706581 0.009634791
00000000: b0b5 b13d 7844 883d 5bdc 5dbd 9963 25bd
00000010: 2650 4ebc aeed 313d ee51 83bd 2170 173c
00000020: 33ab 39bd 4317 3a3d b1da a33d f648 77bd
00000030: 96ef 163d fc41 013d c07f 94bd 5d90 753d
00000040: 6a2f 8c3d d3d6 2fbc 0527 8f3d b814 ae3c
00000050: 0330 f53b 741c 11bd 7ccf a3bd 8d2e 3f3d
00000060: ff79 3d3c c978 133d d486 bdbc 64e1 9c3c
00000070: 24bc 35bd aac6 e13c fe5d 8c3d f3a7 c1bc
00000080: 5637 973d be4c a73d 0dd9 4a3d 544b 98bd
00000090: da91 a23d 89e6 7fbb f71d 393d d4ee e3bc
000000a0: 8254 1abd 963c cdbc 0840 f63c ac83 dabc
000000b0: eb9a 7d3d 2bf9 ee3c 41fa 1fbb 2b29 ce3c
000000c0: a3ee 8f3d 1dbd 6abd ee0f b4bd 339f 953c
000000d0: 5e5d 66bc f567 edbc e8cd 7cbc a3e4 81bd
000000e0: 5047 883d b0e0 943d 5ec0 a7bd e327 3ebc
000000f0: 714d 1cbd ebc7 a83d 8aed d7bc 924d 04bd
00000100: ca6d 183d 4dda af3c 5722 b4bd 718f e8bb
00000110: 4ecd fa3b 191f 1cbd f4fb a7bd 7695 3abd
00000120: 5f1d e53b 0101 04bd 9a5f 053d 5edb 903d
00000130: 2b30 963c 262d 343c 0b96 233d 2bcb 923d
00000140: bf49 6abd 3372 823c d2ea 003c 53f8 81bd
00000150: 4ffc ce3c 6290 2cbd 6535 99bd ba0d 75bc
00000160: 2a88 963c a957 5c3d c7d6 2e3c bf2d 443d
00000170: 8786 87bd af8d 31bc 4e49 51bd 7467 94bd
00000180: b3a2 63bd 9525 60bd d072 3b38 4f4b 583d
00000190: 7a11 1d3d 8866 cebc d6fc 063d 8f53 983d
000001a0: efac 55bc 2ef1 073d e3c0 ab3c a51f 8dbd
000001b0: 29fc 16bc 6cb5 703d cce7 843d 2972 b53d
000001c0: 300f 9d3d 95ce a03d bcaf ebbc a7ff 003c
000001d0: 382a 22bd e89d 963c 38c1 15bc 4a66 9b3d
000001e0: 91f4 28bd ae1f 0abd 76c4 ca3c 835c 033c
000001f0: 07c7 89bd 10d1 ab3c 8f4f b23d 3edb 1d3c
